3D_LessNet_Diff/L2ss_2_Chan_8_Smth_2.0_LR_0.0001_Val/DiceVal_0.74972_Epoch_000000498.pth (torch, 515546 bytes, 25 tensors)

eninput.0.weight f4 [32, 6, 3, 3, 3]
0.039298687 0.05835044 -0.14035115 0.018028907 0.022973975 -0.07699281 -0.08585147 -0.05823226
-0.0558579 0.06799297 0.09716126 0.05375152 -0.09277655 0.1093194 0.0062118927 -0.14520743
-0.046348557 0.03068324 -0.12927258 0.08096366 -0.065267414 -0.11445312 -0.040999815 0.03084797
0.014526943 0.08565218 0.064148545 0.008383261 0.070036694 0.025014207 0.044621997 0.020536166
0.09293052 0.0035640465 0.102612846 0.07275941 -0.08708634 0.059126187 0.031635627 0.0775085
0.038861632 0.019388167 -0.043733213 0.065789744 -0.058537085 0.00508113 -0.14601508 -0.02144901
-0.029774923 -0.13608839 -0.04744464 -0.055434063 -0.014036352 0.077916875 -0.03546084 -0.10313945
0.020068862 0.042868167 0.042683035 0.0043168645 -0.032036576 0.03934414 0.03880807 0.056880575
0.07629772 0.07838636 0.059805788 -0.071819514 0.040375765 -0.007831377 0.07258186 -0.08665602
-0.06256258 0.052883416 0.012144246 0.0060730926 -0.062076233 0.03173457 -0.08743779 0.023112677
0.04469195 -0.03656926 0.042573456 0.049385905 0.022978973 -0.0027002327 0.008590482 -0.040298596
-0.0461289 -0.045917284 -0.056842506 0.054696817 0.048008647 0.03963858 0.033313964 0.030944461
0.03745347 -0.0019706343 -0.07796032 -0.062051848 -0.0003875758 -0.026175015 -0.051152352 -0.04962109
0.059798084 -0.040120456 0.001356351 -0.026462099 -0.09391054 -0.09700917 0.015508763 0.028852003
0.05437602 -0.09545366 -0.033438087 0.14358523 -0.16545343 0.07979477 -0.05573597 -0.00107549
0.044973463 0.09310513 0.12034722 0.08002607 -0.10600406 -0.17382248 -0.105647825 0.051796865
0.028632808 0.008114002 -0.06292416 0.013305747 -0.009500982 0.0430385 0.040959444 0.006083507
-0.14606443 -0.002815104 -0.012866283 -0.09998683 0.10734485 0.034831554 0.015662396 0.06811231
-0.007874581 -0.04345588 -0.026715897 0.02763008 0.03850896 -0.056325767 0.06619488 -0.017158432
0.02236723 -0.004812452 0.010694352 0.017547911 0.055172678 -0.018339064 0.0020999394 0.016207438
0.04305598 -0.048516467 0.09193723 0.18268539 0.22562551 0.15598221 0.11163739 0.0850581
-0.03248659 0.11552294 0.023543835 -0.114619136 -0.012573574 -0.021827487 -0.04256155 0.09044122
-0.025564108 -0.005081055 -0.088457 -0.09452517 -0.07977063 0.023548817 0.06403555 -0.16504982
-0.018866207 0.1550747 0.060963813 -0.05181204 0.13476913 0.06869866 -0.02044792 0.066772535
0.0547944 -0.034214444 -0.069161646 0.040245194 0.036197733 -0.051384095 -0.0016853848 0.032180514
-0.04625519 0.09480063 0.03308712 0.0061040837 0.08309345 0.0913335 0.013438423 -0.10948195
-0.12212714 0.0450687 -0.103575744 0.030264296 -0.020427812 0.036906093 0.08285676 -0.07357315
-0.029174974 0.025278434 -0.0054997983 0.12082332 -0.05290504 0.078750834 0.04545564 -0.06546454
0.08139569 0.0036604158 0.062931076 0.013943733 -0.103688896 0.06058069 -0.04205402 -0.09291581
-0.004645107 0.038810577 0.13069214 -0.059028216 0.084441885 0.02099143 0.016197072 0.049905084
-0.11225958 -0.09671499 -0.10334609 0.020597251 -0.026276335 0.06896129 -0.05143944 -0.03519242
0.004325498 0.067158006 0.0013375687 -0.016614815 -0.024039432 0.06978717 -0.025128195 -0.017275661
00000000: a9f7 203d df00 6f3d 36b8 0fbe 5cb1 933c
00000010: eb33 bc3c 68ae 9dbd e5d2 afbd f384 6ebd
00000020: 41cb 64bd e63f 8b3d 7cfc c63d 8e2a 5c3d
00000030: a201 bebd d9e2 df3d 228d cb3b 42b1 14be
00000040: fcd7 3dbd 6b5b fb3c 0860 04be 46d0 a53d
00000050: ecaa 85bd 6666 eabd 6cef 27bd e2b4 fc3c
00000060: 6a02 6e3c 696a af3d 5060 833d f259 093c
00000070: 666f 8f3d 98ea cc3c 8ec5 363d 763b a83c
00000080: 5b52 be3d c792 693b af26 d23d e302 953d
00000090: 535a b2bd 4d2e 723d 5c94 013d c7bc 9e3d
000000a0: 602d 1f3d efd3 9e3c 9921 33bd c6bc 863d
000000b0: 95c4 6fbd 9c7f a63b fa84 15be d6b5 afbc
000000c0: 8aea f3bc c15a 0bbe 5055 42bd d40e 63bd
000000d0: baf8 65bc e292 9f3d 633f 11bd c73a d3bd
000000e0: 7467 a43c 8896 2f3d 68d4 2e3d 7c74 8d3b
000000f0: c938 03bd 5227 213d 36f5 1e3d 9bfb 683d
00000100: fb41 9c3d 0789 a03d eaf6 743d 1c16 93bd
00000110: 0f61 253d 2d4f 00bc cca5 943d b678 b1bd
00000120: cf20 80bd 489c 583d a9f8 463c cb00 c73b
00000130: a643 7ebd 1cfc 013d 9612 b3bd cc56 bd3c
00000140: e80e 373d a6c9 15bd 8161 2e3d e048 4a3d
00000150: 663e bc3c 63f6 30bb 18bf 0c3c 2410 25bd
00000160: a8f1 3cbd c313 3cbd b0d3 68bd c509 603d
00000170: b7a4 443d 105c 223d 3974 083d 3d7f fd3c
00000180: cf68 193d c225 01bb a9a9 9fbd 142a 7ebd
00000190: 8b33 cbb9 fc6c d6bc 2185 51bd 7c3f 4bbd
000001a0: d6ee 743d 5955 24bd 96c7 b13a 0bc7 d8bc
000001b0: 2b54 c0bd beac c6bd 7718 7e3c 095b ec3c
000001c0: 64b9 5e3d 357d c3bd 60f6 08bd 0208 133e
000001d0: a06c 29be 716b a33d 674b 64bd 75f7 8cba
000001e0: 1836 383d e7ad be3d 9a78 f63d b5e4 a33d
000001f0: a818 d9bd 85fe 31be e35d d8bd f328 543d
00000200: 5a8f ea3c 97f0 043c 62de 80bd 5900 5a3c
00000210: 02aa 1bbc 2349 303d 17c5 273d 2858 c73b
00000220: ea91 15be 9c7d 38bb 1acd 52bc e5c5 ccbd
00000230: 9ed7 db3d 88ab 0e3d 6d4e 803c 777e 8b3d
00000240: 6304 01bc cbfe 31bd 4cdb dabc 7a58 e23c
00000250: 92bb 1d3d d9b5 66bd 2e91 873d d78f 8cbc
00000260: 7b3b b73c c6b1 9dbb 5d37 2f3c a3c0 8f3c
00000270: bffc 613d ce3b 96bc 239f 093b 76c5 843c
00000280: 785b 303d 34b9 46bd 9649 bc3d e111 3b3e
00000290: 600a 673e cdb9 1f3e 25a2 e43d f132 ae3d
000002a0: a910 05bd 4b97 ec3d 00df c03c 70bd eabd
000002b0: 6401 4ebc 8fcf b2bc 0555 2ebd 3f39 b93d
000002c0: d26b d1bc fb7e a6bb f228 b5bd 6a96 c1bd
000002d0: c95e a3bd 73e9 c03c 1225 833d d202 29be
000002e0: 4e8d 9abc e7cb 1e3e 31b5 793d dd38 54bd
000002f0: eb00 0a3e e2b1 8c3d 6582 a7bc 0ac0 883d
00000300: 1870 603d 7224 0cbd 9fa4 8dbd 25d8 243d
00000310: 1344 143d 2178 52bd 21e8 dcba b7cf 033d
00000320: 1576 3dbd d526 c23d 5c86 073d c404 c83b
00000330: e62c aa3d 0f0d bb3d d52c 5c3c 1338 e0bd
00000340: cb1d fabd f599 383d 851f d4bd d4ec f73c
00000350: 3a58 a7bc d82a 173d ceb0 a93d 85ad 96bd
00000360: 5b00 efbc b814 cf3c a737 b4bb 3772 f73d
00000370: f5b2 58bd 1e48 a13d b12f 3a3d 4612 86bd
00000380: c9b2 a63d 96e3 6f3b 02e2 803d 4174 643c
00000390: d85a d4bd 7523 783d d640 2cbd a54a bebd
000003a0: fb35 98bb d7f7 1e3d 29d4 053e 92c7 71bd
000003b0: deef ac3d 38f6 ab3c b9af 843c 4669 4c3d
000003c0: 5ae8 e5bd 8212 c6bd 1da7 d3bd 91bb a83c
000003d0: 7841 d7bc 943b 8d3d 2ab2 52bd ed25 10bd
000003e0: e8bc 8d3b 238a 893d 5c51 af3a cb1b 88bc
000003f0: 58ee c4bc 93ec 8e3d a5d9 cdbc b085 8dbc

eninput.0.bias f4 [32]
0.058634162 -0.00012617333 -0.06416381 -0.067701325 0.07358367 -0.0047100973 0.06263249 -0.1096836
0.03342056 -0.009990952 -0.13952082 0.06169688 -0.013323209 0.038115103 0.05786158 0.03921812
0.076879464 -0.0002728072 0.013905232 0.03671849 -0.00016476601 -0.08642635 -0.024739392 -0.000247549
0.050565816 0.009558925 0.06736786 0.028061857 -0.0696067 -0.07415269 -0.08734923 -0.10766157
00000000: 602a 703d 654d 04b9 5168 83bd fea6 8abd
00000010: 09b3 963d 2957 9abb 7745 803d cca1 e0bd
00000020: ffe3 083d 17b1 23bc 8cde 0ebe deb5 7c3d
00000030: 9749 5abc 951e 1c3d 4400 6d3d 2ea3 203d
00000040: fb72 9d3d 9007 8fb9 c5d2 633c 2166 163d
00000050: 0ac5 2cb9 4c00 b1bd 44aa cabc 77c9 81b9
00000060: 1a1e 4f3d 0a9d 1c3c 29f8 893d fbe1 e53c
00000070: f58d 8ebd 5edd 97bd 27e4 b2bd ab7d dcbd

dc1.0.weight f4 [32, 32, 3, 3, 3]
0.015942352 -0.019263107 -0.025319459 -0.056005426 -0.10703194 -0.053647697 -0.016281828 -0.017123867
-0.056665115 -0.013872193 0.012627875 -0.030147444 0.075572856 -0.0018700575 -0.091818444 -0.046378016
-0.010221613 -0.028703729 -0.014290854 -0.013625394 0.0001617743 -0.029877054 0.12648042 0.03604978
-0.0064053508 -0.03108607 0.032212835 0.014163224 -0.043632194 -0.053120896 -0.048132617 -0.0787464
-0.015473508 -0.01124013 0.0809923 0.043987278 0.01663315 -0.048014544 0.07069077 0.0022525222
0.02395274 -0.0031572983 0.0023309703 0.04913609 -0.09147976 0.030077988 -0.06771301 -0.06399845
0.04134876 -0.0025421735 -0.06632868 -0.02279134 -0.06456247 -0.11039518 0.0423624 0.0007827651
-0.13552082 0.0015143496 0.06510734 0.01569511 0.01726841 0.028691279 -0.011520906 -0.18116963
-0.05641142 -0.03876372 -0.10652208 0.103644855 0.09157231 -0.016822385 0.051665552 -0.013842849
-0.09099856 -0.11267692 0.038080323 -0.08785287 -0.10411472 0.029494567 0.05364535 0.12563716
0.0041685337 0.036060296 0.22071457 0.085424654 0.024738934 0.07497013 -0.08652928 -0.008296817
0.06908566 -0.2347537 0.010215108 0.16421007 0.14041132 0.044413857 0.050772347 -0.04717613
-0.15324871 -0.15768221 0.047790732 -0.08208394 -0.015507342 -0.011360781 0.020203725 0.0039140456
0.083919615 0.0764916 -0.0671669 0.10088965 0.047226507 0.03647438 -0.012256298 0.029294461
-0.039115485 -0.08117846 -0.07541473 -0.013932045 -0.018143034 -0.0561288 0.010820326 -0.030799313
-0.004958972 0.007674855 -0.005955603 0.05479288 -0.1128462 -0.059643447 -0.035167128 0.03206401
0.04676677 -0.01980701 0.0082399715 -0.025974695 -0.10275205 -0.029892497 -0.01988268 0.12197522
0.059066918 0.025864322 0.11527589 0.0017008458 -0.00844541 -0.011041396 -0.020658437 0.074251816
0.051982693 0.07313953 0.10208139 0.016837303 0.069335826 -0.00010195655 -0.038317364 0.0020401424
0.0062679206 0.045885377 -0.010055248 0.024026636 -0.0024299428 -0.048177257 -0.011992577 -0.043706484
0.021703416 0.014253521 -0.021905594 -0.0063001676 -0.047473636 -0.027406555 0.07275395 -0.0062453626
-0.0062991385 -0.0077737607 -0.06121607 -0.029398423 0.04918113 0.052797467 0.06483179 0.04581832
0.06225953 -0.0069550974 -0.011613918 -0.02625587 -0.014711963 -0.09359194 0.03197476 0.02699263
-0.011981116 0.0029668082 0.034795444 -0.09122685 -0.0050700386 -0.012250659 0.011636242 0.097801715
-0.029693952 0.010322159 0.02957604 0.004411828 0.050527703 0.079369485 -0.00046477737 -0.015739072
0.08085828 0.027270027 -0.0037884167 -0.005084651 0.09524637 0.014854079 -0.020893909 0.029403802
0.0022447896 0.018497141 0.15280819 -0.15675813 -0.13453943 -0.0011651351 -0.11836871 -0.06071595
0.0023078294 0.043453448 0.091541715 0.030954467 0.062470928 0.054276027 -0.017581373 0.03638993
0.120472655 0.09993326 0.087570965 0.14735614 0.124816336 0.09204792 0.12636702 0.028510286
-0.055072203 0.040878423 0.0017632734 -0.008091998 0.06674469 0.06582734 0.012889382 0.07172796
0.083401024 -0.10800866 -0.02066564 0.031753752 0.03568658 0.09614036 0.0045735133 0.018492954
0.056885883 -0.019805184 0.14268044 0.058408797 0.06259795 -0.025071356 0.09043893 0.07357754
00000000: 8999 823c aacd 9dbc c16a cfbc f265 65bd
00000010: 9033 dbbd b0bd 5bbd 7861 85bc 5a47 8cbc
00000020: ae19 68bd 3248 63bc 26e5 4e3c c6f7 f6bc
00000030: f1c5 9a3d b81c f5ba 4f0b bcbd e0f6 3dbd
00000040: 8d78 27bc 1524 ebbc 3024 6abc 0b3d 5fbc
00000050: f5a1 2939 b9c0 f4bc 1584 013e efa8 133d
00000060: fae3 d1bb 37a8 febc 9bf1 033d de0c 683c
00000070: acb7 32bd 4c95 59bd b526 45bd cb45 a1bd
00000080: 9984 7dbc 8628 38bc 4adf a53d 012c 343d
00000090: 3e42 883c e6aa 44bd 53c6 903d 0d9f 133b
000000a0: 8938 c43c adea 4ebb 31c3 183b ed42 493d
000000b0: be59 bbbd 1d66 f63c 1ead 8abd 9f11 83bd
000000c0: 515d 293d 989a 26bb 55d7 87bd e7b4 babc
000000d0: 5439 84bd de16 e2bd 3284 2d3d 7a32 4d3a
000000e0: f8c5 0abe 247d c63a ff56 853d 0893 803c
000000f0: 7b76 8d3c f909 eb3c 2fc2 3cbc 8884 39be
00000100: a90f 67bd b5c6 1ebd 4028 dabd c143 d43d
00000110: 438a bb3d 19cf 89bc 429f 533d 1ecd 62bc
00000120: 745d babd 28c3 e6bd 1dfa 1b3d 35ec b3bd
00000130: 193a d5bd 979e f13c 3abb 5b3d 07a7 003e
00000140: 3298 883b f6b3 133d 0003 623e 1ff3 ae3d
00000150: 4ea9 ca3c f189 993d 4336 b1bd 5fef 07bc
00000160: c87c 8d3d 4663 70be 455d 273c af26 283e
00000170: fcc7 0f3e 4eeb 353d aaf6 4f3d c23b 41bd
00000180: 3bed 1cbe 7277 21be 37c0 433d a01b a8bd
00000190: 8212 7ebc 9222 3abc 4882 a53c 6541 803b
000001a0: 0cde ab3d a1a7 9c3d cd8e 89bd 3c9f ce3d
000001b0: 9570 413d 2966 153d a4ce 48bc f0fa ef3c
000001c0: 8f37 20bd e440 a6bd 0a73 9abd 3b43 64bc
000001d0: b3a0 94bc 50e7 65bd bd47 313c d74e fcbc
000001e0: df7e a2bb 5a7d fb3b 3827 c3bb 806e 603d
000001f0: e91b e7bd b04c 74bd 680b 10bd 8d55 033d
00000200: 838e 3f3d 5042 a2bc f200 073c e2c8 d4bc
00000210: ab6f d2bd 1ce1 f4bc 01e1 a2bc 25ce f93d
00000220: 27f0 713d 6ae1 d33c c415 ec3d eaee de3a
00000230: 9e5e 0abc f9e6 34bc e23b a9bc 5611 983d
00000240: ceeb 543d 2eca 953d 0c10 d13d 62ee 893c
00000250: f1ff 8d3d 82d1 d5b8 abf2 1cbd e9b3 053b
00000260: 2163 cd3b 4ef2 3b3d c4be 24bc 82d3 c43c
00000270: ad3f 1fbb 8455 45bd 847c 44bc 9205 33bd
00000280: 5dcb b13c 9a87 693c 5c73 b3bc a371 cebb
00000290: b773 42bd b683 e0bc 0600 953d e6a5 ccbb
000002a0: 0169 cebb 08bb febb b4bd 7abd f6d4 f0bc
000002b0: 2772 493d 2842 583d 88c6 843d feab 3b3d
000002c0: d903 7f3d 96e7 e3bb 4d48 3ebc 8d16 d7bc
000002d0: 720a 71bc 22ad bfbd f7f7 023d a61f dd3c
000002e0: 714c 44bc c86e 423b ab85 0e3d 25d5 babd
000002f0: 9122 a6bb fdb6 48bc f0a5 3e3c 444c c83d
00000300: bb40 f3bc 461e 293c 7449 f23c 1891 903b
00000310: 23f6 4e3d 788c a23d 5dad f3b9 3aef 80bc
00000320: 0799 a53d 6465 df3c 1647 78bb 259d a6bb
00000330: 8710 c33d 865e 733c b429 abbc 3ee0 f03c
00000340: 521d 133b 5187 973c c079 1c3e 3485 20be
00000350: b4c4 09be 72b7 98ba 4b6b f2bd 4ab1 78bd
00000360: f43e 173b 3efc 313d 397a bb3d 3994 fd3c
00000370: 84e1 7f3d 8a50 5e3d d006 90bc 9b0d 153d
00000380: 5eba f63d cfa9 cc3d 6858 b33d 87e4 163e
00000390: b59f ff3d 9f83 bc3d 5b66 013e 678e e93c
000003a0: 6493 61bd 2270 273d a31d e73a 4d94 04bc
000003b0: 71b1 883d 7cd0 863d fd2d 533c 1ce6 923d
000003c0: 28ce aa3d a533 ddbd fd4a a9bc 3910 023d
000003d0: 172c 123d 3de5 c43d 69dd 953b 897e 973c
000003e0: 2c01 693d 7b3e a2bc d21a 123e 103e 6f3d
000003f0: 5b33 803d 7262 cdbc 0c38 b93d d2af 963d

dc1.0.bias f4 [32]
0.0050790096 0.035729755 0.014131196 0.020201057 0.003971063 0.030341685 0.047247667 -0.03522896
0.038100336 0.022308912 -0.0037227452 0.035867926 0.0027775953 -0.00026523529 0.023473047 0.074613705
-0.02212441 -0.016918676 0.0059599187 0.040318992 0.013900629 -0.044344123 -0.017181024 0.02021353
-0.006183534 0.049613137 -0.016627405 0.008687214 0.0020251002 0.023104114 0.02099631 0.06840848
00000000: d26d a63b 5d59 123d 8886 673c b07c a53c
00000010: b11f 823b 208f f83c c586 413d 3e4c 10bd
00000020: 190f 1c3d 2ec1 b63c 4df9 73bb 3fea 123d
00000030: 5108 363b 470f 8bb9 8c4a c03c 12cf 983d
00000040: 403e b5bc 0999 8abc 6c4b c33b 8725 253d
00000050: 77bf 633c 2fa2 35bd 38bf 8cbc d896 a53c
00000060: 3e9f cabb 2537 4b3d 3236 88bc d154 0e3c
00000070: 8bb7 043b d744 bd3c 7400 ac3c bf19 8c3d

dc2.0.weight f4 [32, 32, 3, 3, 3]
0.17440188 0.05113563 -0.074701525 0.06670985 0.09898992 0.17142938 0.1585104 0.036661353
0.117865324 -0.09728603 0.04637471 0.064723045 -0.20432058 -0.08538182 -0.10968149 -0.23356628
-0.015710121 0.11970306 -0.13801004 0.008847074 0.018585576 0.1187108 0.05151221 -0.06887373
0.11119734 -0.07467675 0.010977928 -0.05130652 -0.020588916 -0.12959605 0.031031614 0.019841192
0.01919893 -0.010885378 -0.041921463 -0.09223987 -0.0537228 0.007312103 -0.17686689 -0.054354575
0.06681283 -0.101539254 -0.172591 0.018537356 -0.05477635 0.032146167 0.04676569 -0.1571296
-0.12988517 0.017458608 -0.08605515 -0.14399852 -0.10416128 -0.018525233 0.049986675 -0.016226416
0.041636296 0.18582927 0.011001459 0.08129642 0.048048988 0.07822799 0.09913076 0.057369865
0.023874637 0.018779587 0.101729855 0.012960895 0.030251395 -0.0062555745 -0.04475232 0.07623856
0.07873566 -0.01617849 0.004919395 0.0021226676 -0.015670767 0.025851501 0.10265462 0.016543573
0.049017474 -0.018792855 -0.0072147273 0.006065623 0.039490674 -0.02215776 0.019732144 -0.015865037
-0.0074144937 0.03926437 0.016598 -0.0010222719 0.012949987 0.030373396 0.02477816 0.039328724
0.015059234 -0.033871785 0.031192351 0.06432024 0.026434064 -0.036469568 0.010199421 0.1161999
0.019038802 -0.031899557 0.04749862 0.014605374 -0.0494432 -0.03992281 0.006009836 -0.012325769
0.06650503 -0.0029749265 -0.0818408 -0.0009199986 -0.050387174 0.009446844 -0.02816522 -0.07706368
-0.042050943 0.03385924 -0.059817977 -0.069142625 0.029451752 -0.00311363 0.019841483 -0.011764997
-0.04648903 0.024294168 0.027780917 0.0033837785 0.034184888 0.05030219 -0.009190751 -0.013638044
-0.053832322 -0.04976579 0.009357755 0.044299137 0.026432818 0.05043859 -0.024184242 -0.014725428
-0.036109693 0.058125038 0.018840753 -0.005452799 -0.03467977 -0.02031309 0.026951177 0.0141313495
0.02997055 0.013273524 -0.010247702 -0.03937091 0.09016656 -0.011415039 -0.0038697424 -0.009119187
-0.0012731765 -0.036903128 0.00046959516 0.040641475 -0.01813911 -0.041958086 0.04434985 -0.017402269
-0.00963046 0.00038715094 -0.03853511 0.029329598 0.027629348 0.024885425 0.0057966015 0.06360443
0.027939219 -0.007460012 -0.023788327 -0.020687355 -0.0100112995 -0.010036993 -0.042495266 0.01582548
0.041694045 0.063521475 0.011858069 0.004182984 0.037979502 0.05406987 0.0574492 -0.022424193
0.025208663 0.013293806 -0.09921347 -0.03914938 0.0011568748 0.031911444 0.07105723 0.011570112
-0.048877645 0.048878387 -0.023926754 -0.008110387 0.0027804712 -0.0012922147 -0.024465319 0.03075354
-0.08387782 -0.07240502 -0.071705 -0.05982029 -0.028683854 -0.05743767 0.03829935 0.016328435
0.04420833 0.04596428 -0.07642793 -0.01901358 -0.025482118 -0.020324586 0.059956327 -0.046036962
-0.016032113 0.039069053 0.014692079 -0.10604916 -0.014406848 0.0052642454 -0.021699658 0.048077893
0.035282318 -0.03293716 0.024032444 0.040555105 -0.10808052 -0.011413035 0.053942885 0.03520746
0.02850136 0.03033931 -0.002797834 -0.060085706 0.015138962 0.057531223 0.018420044 0.014847238
0.093902215 0.15076089 0.04669673 0.048882533 0.04719275 0.05023552 0.022539563 -0.025900114
00000000: 6896 323e 9873 513d 1dfd 98bd 2d9f 883d
00000010: 3abb ca3d 2f8b 2f3e 8d50 223e 372a 163d
00000020: 6063 f13d e63d c7bd 68f3 3d3d 848d 843d
00000030: 6a39 51be aadc aebd b0a0 e0bd 002c 6fbe
00000040: 83b2 80bc e126 f53d 8152 0dbe 51f3 103c
00000050: c740 983c a61e f33d 78fe 523d ac0d 8dbd
00000060: 6ebb e33d 20f0 98bd c4dc 333c c926 52bd
00000070: 16aa a8bc d4b4 04be 0336 fe3c ff89 a23c
00000080: 1347 9d3c 9658 32bc d7b5 2bbd 42e8 bcbd
00000090: 700c 5cbd 5e9a ef3b 981c 35be e7a2 5ebd
000000a0: 2ad5 883d d0f3 cfbd b2bb 30be a7db 973c
000000b0: 2a5d 60bd b3ab 033d 618d 3f3d 95e6 20be
000000c0: 9e00 05be 5b05 8f3c af3d b0bd 5974 13be
000000d0: 8252 d5bd 3bc2 97bc d4be 4c3d 43ed 84bc
000000e0: d28a 2a3d 074a 3e3e 773f 343c bd7e a63d
000000f0: 04cf 443d ff35 a03d 1105 cb3d aafc 6a3d
00000100: be94 c33c a6d7 993c be57 d03d ef59 543c
00000110: c6d1 f73c 90fb ccbb 354e 37bd f622 9c3d
00000120: 2940 a13d c188 84bc e032 a13b 741c 0b3b
00000130: fb5f 80bc 87c6 d33c 963c d23d 6386 873c
00000140: 8cc6 483d 79f3 99bc 8569 ecbb 22c2 c63b
00000150: f9c0 213d 3184 b5bc 4ea5 a13c 65f7 81bc
00000160: 48f5 f2bb add3 203d 87f8 873c c1fd 85ba
00000170: 2f2c 543c a1d1 f83c 91fb ca3c 2817 213d
00000180: 01bb 763c 24bd 0abd 1a87 ff3c 54ba 833d
00000190: 408c d83c 1d61 15bd 791b 273c 37fa ed3d
000001a0: 43f7 9b3c 1ca9 02bd ea8d 423d 614b 6f3c
000001b0: f484 4abd 1a86 23bd 29ee c43b 06f2 49bc
000001c0: ca33 883d fcf6 42bb 269c a7bd 102c 71ba
000001d0: c862 4ebd f0c6 1a3c bfba e6bc 90d3 9dbd
000001e0: 9c3d 2cbd fdaf 0a3d b203 75bd a69a 8dbd
000001f0: cd44 f13c 0b0e 4cbb 9b8a a23c f9c1 40bc
00000200: 486b 3ebd 9004 c73c ce94 e33c 62c2 5d3b
00000210: 7405 0c3d ab09 4e3d ce94 16bc 1a72 5fbc
00000220: 487f 5cbd 37d7 4bbd 4551 193c 0373 353d
00000230: a389 d83c b298 4e3d 081e c6bc ec42 71bc
00000240: c2e7 13bd 8514 6e3d ec57 9a3c 65ad b2bb
00000250: 600c 0ebd a367 a6bc b7c8 dc3c 2d87 673c
00000260: cd84 f53c 3279 593c fae5 27bc 6443 21bd
00000270: 3fa9 b83d 2506 3bbc 819b 7dbb a468 15bc
00000280: b7e0 a6ba bc27 17bd ff33 f639 ad77 263d
00000290: 7998 94bc 3edc 2bbd 30a8 353d 348f 8ebc
000002a0: 14c9 1dbc 85fa ca39 fed6 1dbd a044 f03c
000002b0: f156 e23c 85dc cb3c 6bf1 bd3b 0a43 823d
000002c0: cae0 e43c 1e73 f4bb bddf c2bc 8778 a9bc
000002d0: 6f06 24bc 3372 24bc 840f 2ebd 70a4 813c
000002e0: 60c7 2a3d 8c17 823d 5948 423c 6a11 893b
000002f0: 6590 1b3d 5e78 5d3d da4f 6b3d f1b2 b7bc
00000300: 6682 ce3c 44ce 593c 6f30 cbbd 1a5b 20bd
00000310: 47a2 973a 93b5 023d 7486 913d 9190 3d3c
00000320: ed33 48bd b434 483d 0a02 c4bc 6ee1 04bc
00000330: 9138 363b 885f a9ba 7e6b c8bc d9ee fb3c
00000340: 22c8 abbd 1549 94bd 12da 92bd 1f06 75bd
00000350: 67fa eabc c343 6bbd c7df 1c3d 36c3 853c
00000360: cb13 353d 0a45 3c3d 3f86 9cbd 5ec2 9bbc
00000370: e0bf d0bc bf7f a6bc c494 753d 4191 3cbd
00000380: c755 83bc df06 203d 0cb7 703c 4d30 d9bd
00000390: b30a 6cbc b17f ac3b 7bc3 b1bc 53ed 443d
000003a0: 3184 103d 1ee9 06bd b0df c43c 1c1d 263d
000003b0: 5259 ddbd bdfd 3abc 37f3 5c3d b335 103d
000003c0: af7b e93c 258a f83c de5b 37bb 6e1c 76bd
000003d0: 6909 783c dca5 6b3d a2e5 963c d441 733c
000003e0: ce4f c03d 1061 1a3e 1245 3f3d 0d39 483d
000003f0: 2f4d 413d c3c3 4d3d e4a4 b83c 7a2c d4bc

dc2.0.bias f4 [32]
-0.0078915255 0.017123263 0.040797655 0.019687932 -0.0134450095 0.048618164 0.019246997 0.023840694
0.018092299 -0.06469189 -0.051264945 0.031424016 0.05841229 0.029026687 -0.024360558 0.010504103
0.049891833 0.034869306 -0.022257945 0.019010745 0.022051526 -0.025752729 -0.0052892887 0.09707275
0.03343927 0.07627098 0.008397714 -0.031616583 0.058308326 -0.039134137 0.048886616 0.014941406
00000000: 754b 01bc 1646 8c3c 711b 273d 9648 a13c
00000010: 7548 5cbc d723 473d e1ab 9d3c 8f4d c33c
00000020: 4d36 943c 2e7d 84bd 31fb 51bd 78b6 003d
00000030: ba41 6f3d 60c9 ed3c cb8f c7bc 6719 2c3c
00000040: 615b 4c3d 1ed3 0e3d 4b56 b6bc 6cbc 9b3c
00000050: 67a5 b43c 63f7 d2bc c551 adbb 14ce c63d
00000060: 9ef7 083d f633 9c3d 9196 093c 6480 01bd
00000070: b6d4 6e3d 1e4b 20bd 553d 483d cdcc 743c

dc3.0.weight f4 [24, 30, 3, 3, 3]
-0.027843747 0.03129135 0.012746581 0.045919552 0.013875961 0.038834527 -0.030884216 -0.0009066603
-0.020795343 0.04017053 -0.0071104835 0.038643956 0.020462077 0.040370777 0.043353535 -0.030539023
-0.020113358 -0.021470107 -0.021003576 0.028461568 0.020416047 -0.021366378 0.027270406 -0.018886173
-0.051815562 0.029287368 0.012586908 -0.051272467 -0.0013307168 -0.008029102 -0.03686951 -0.023876034
-0.011520232 0.0077222455 -0.032751486 0.01889156 -0.047968205 -0.0013681861 -0.015798194 -0.09872295
-0.0024307005 0.03949652 -0.009473615 -0.0012032241 0.004648932 -0.042915013 -0.022195086 -0.00033397085
-0.031337053 -0.06731972 0.013469922 -0.014443115 0.059272688 0.012761788 0.004650543 -0.0005737438
0.015700188 0.06896328 0.011824308 0.0073294756 -0.0035586746 0.03185997 -0.014773612 0.033670288
-0.010047308 0.015540997 0.048221115 -0.023816569 -0.034211557 0.006994877 -0.0056015383 -0.07201313
0.015107812 -0.0062747938 0.012936669 -0.0133367125 -0.022880537 -0.010992312 -0.014840762 -0.03719264
-0.057444457 0.00042299237 -0.08698535 0.007720907 -0.019328075 -0.013429785 -0.0164593 0.00013294547
0.05614916 0.0047035674 -0.095168956 -0.060862374 -0.038819775 0.017820384 -0.018103775 -0.0031476961
-0.019811587 0.105651155 0.045814946 -0.004117578 -0.04989035 0.019182505 0.0014216915 0.0048463927
-0.011637595 -8.856618e-06 0.08945417 0.021173371 -0.03826246 -0.04904545 -0.025640802 -0.012328787
0.008865993 0.052419048 0.038842164 0.102148116 0.0050901794 -0.042822562 -0.007591796 -0.023546997
-0.0029694207 0.042682204 0.006791226 0.046654716 0.06931034 0.03390932 -0.012510518 -0.045988
-0.042880464 -0.016682653 -0.004416698 -0.014121686 0.029394403 0.044186402 -0.0014402893 -0.069193415
0.03330378 -0.1007383 -0.009452792 -0.034662444 -0.05435545 0.007983132 -0.0038065969 0.018918889
-0.0057935305 -0.040785763 -0.059807554 0.0104197515 -0.05147968 -0.016846865 -0.012946583 0.05031117
-0.009205807 0.03570044 0.0009022671 0.015155144 0.005501888 -0.14194393 -0.093242645 -0.0014252051
-0.06399627 -0.008629293 -0.0053960504 0.013427025 0.010237405 0.03361004 0.0073237694 -0.02996737
0.005559173 0.049618166 0.042536046 -0.052512158 -0.04018134 0.0027517353 0.015234214 -0.00961057
0.018794702 0.08414164 0.051231503 0.0051395274 -0.062348917 -0.052640397 0.027490877 -0.026588252
-0.025453398 -0.04403761 0.038632993 0.046094753 0.01751923 -0.024112584 -0.048019122 -0.07093353
-0.02110762 -0.015120041 0.0051219524 -0.0013492618 -0.026341718 0.009820844 0.010048229 -0.071338646
-0.03729367 -0.01770952 -0.06579135 -0.004703265 -0.0031389096 -0.02115326 -0.01133698 0.020398995
-0.032720957 -0.048376154 -0.012667193 -0.054990813 -0.00892853 0.02875287 0.015831128 -0.00931343
-0.024046585 0.0037615185 -0.0008446296 0.008914924 -0.02741372 0.039290473 -0.035113014 -0.017204396
0.01614249 -0.021025646 -0.019551774 -0.013761137 -0.047718458 -0.011444024 -0.009763346 -0.048246946
-0.021425018 -0.01137416 -0.03806764 -0.04301094 -0.003985359 0.016409941 0.005930045 -0.03352844
0.0146298 0.0044229976 0.027177297 0.022086034 0.04896383 0.06275369 0.029208498 0.04063674
0.0586793 -0.064467855 -0.04403478 0.011658237 0.027837466 -0.011451218 -0.014177842 0.06120869
00000000: 9218 e4bc 5c2b 003d 09d7 503c 2416 3c3d
00000010: 0058 633c f410 1f3d e500 fdbc f1ac 6dba
00000020: ff5a aabc db89 243d 0fff e8bb 2049 1e3d
00000030: 16a0 a73c d45b 253d 7a93 313d f92c fabc
00000040: c5c4 a4bc 14e2 afbc b10f acbc 3c28 e93c
00000050: 8e3f a73c 8b08 afbc 3066 df3c 2db7 9abc
00000060: 8e3c 54bd 10ec ef3c 5239 4e3c 1403 52bd
00000070: 726b aeba 7f8c 03bc 7c04 17bd ac97 c3bc
00000080: 5bbf 3cbc e40a fd3b 6c26 06bd 79c2 9a3c
00000090: 4f7a 44bd b554 b3ba 376b 81bc 422f cabd
000000a0: 634c 1fbb 1ac7 213d 3937 1bbc 80b5 9dba
000000b0: 1156 983b a7c7 2fbd 78d2 b5bc cf18 afb9
000000c0: 485b 00bd ecde 89bd f3b0 5c3c d1a2 6cbc
000000d0: ebc7 723d d216 513c 9563 983b 4b67 16ba
000000e0: ae9d 803c 9f3c 8d3d beba 413c 192c f03b
000000f0: a738 69bb 9a7f 023d 050d 72bc dbe9 093d
00000100: 779d 24bc aa9f 7e3c 8183 453d f71a c3bc
00000110: 6b21 0cbd 4835 e53b 1c8d b7bb 9f7b 93bd
00000120: c286 773c c99c cdbb 53f4 533c 3a82 5abc
00000130: f76f bbbc 1919 34bc ab26 73bc 4f57 18bd
00000140: e14a 6bbd 13c5 dd39 6025 b2bd aaff fc3b
00000150: e955 9ebc 9a08 5cbc a7d5 86bc 4767 0b39
00000160: a9fc 653d 6220 9a3b f1e7 c2bd d34a 79bd
00000170: 7c01 1fbd 0efc 913c 5e4e 94bc 9449 4ebb
00000180: e94b a2bc a25f d83d 74a8 3b3d bfec 86bb
00000190: d359 4cbd a124 9d3c 0d58 ba3a 7dce 9e3b
000001a0: 9cab 3ebc e296 14b7 bf33 b73d c773 ad3c
000001b0: 19b9 1cbd e2e3 48bd a90c d2bc aefe 49bc
000001c0: ab42 113c 5bb5 563d f618 1f3d 0833 d13d
000001d0: 85cb a63b b666 2fbd 9ac4 f8bb a2e5 c0bc
000001e0: 9d9a 42bb 89d3 2e3d ef88 de3b 0419 3f3d
000001f0: 94f2 8d3d 80e4 0a3d eaf8 4cbc ea5d 3cbd
00000200: 6da3 2fbd 0faa 88bc f3b9 90bb a55e 67bc
00000210: 88cc f03c cdfc 343d 17c8 bcba 47b5 8dbd
00000220: 8b69 083d e24f cebd e2df 1abc 35fa 0dbd
00000230: d2a3 5ebd afcb 023c 1978 79bb c9fb 9a3c
00000240: a8d7 bdbb f90e 27bd c4f8 74bd 9bb7 2a3c
00000250: 5bdc 52bd 7002 8abc e81d 54bc 1613 4e3d
00000260: f4d3 16bc a03a 123d 1f86 6c3a 484d 783c
00000270: 2f49 b43b c059 11be 00f6 bebd f3cd baba
00000280: 7a10 83bd e161 0dbc 5ad1 b0bb 06fd 5b3c
00000290: caba 273c aeaa 093d 3bfc ef3b 217e f5bc
000002a0: b929 b63b 6b3c 4b3d 473a 2e3d fd16 57bd
000002b0: 3095 24bd 7556 343b ed98 793c a775 1dbc
000002c0: 59f7 993c 7452 ac3d 20d8 513d 7b69 a83b
000002d0: 9461 7fbd 759d 57bd 8c34 e13c 9bcf d9bc
000002e0: a583 d0bc c860 34bd a13d 1e3d dacd 3c3d
000002f0: 7d84 8f3c c187 c5bc b3af 44bd 9945 91bd
00000300: e3e9 acbc 0cba 77bc 0dd6 a73b b7d9 b0ba
00000310: 96ca d7bc 9be7 203c 54a1 243c ff19 92bd
00000320: 3fc1 18bd 8e13 91bc 9ebd 86bd d91d 9abb
00000330: 2ab6 4dbb 9a49 adbc bebe 39bc cb1b a73c
00000340: 6906 06bd 1326 46bd 0f8a 4fbc 0c3e 61bd
00000350: f848 12bc 248b eb3c 48b0 813c 5b97 18bc
00000360: 58fd c4bc cf83 763b 226a 5dba e70f 123c
00000370: bd92 e0bc 0cef 203d aad2 0fbd 3cf0 8cbc
00000380: 413d 843c fa3d acbc 0b2b a0bc 6476 61bc
00000390: 6e74 43bd b77f 3bbc 71f6 1fbc 979e 45bd
000003a0: 8583 afbc af5a 3abc d0ec 1bbd 3d2c 30bd
000003b0: 9d97 82bb 246e 863c d350 c23b 1e55 09bd
000003c0: d4b1 6f3c cbee 903b eca2 de3c c5ed b43c
000003d0: 4c8e 483d 0285 803d a946 ef3c b672 263d
000003e0: b559 703d b907 84bd d05d 34bd 3102 3f3c
000003f0: 660b e43c e49d 3bbc 2e4a 68bc f7b5 7a3d

dc3.0.bias f4 [24]
-0.0029105588 0.019367192 -0.015238545 -0.0039146463 0.00632898 0.042139992 0.021463012 -0.018085245
0.009127169 0.02353435 -0.016617369 0.015491219 0.0035825302 -0.0215344 0.012486525 -0.0028832012
0.010305053 0.0029269573 -0.0025497996 0.022405589 0.010384021 0.027660511 -0.013272066 0.06241998
00000000: 13bf 3ebb f2a7 9e3c 17ab 79bc 6f46 80bb
00000010: 5563 cf3b fc9a 2c3d 33d3 af3c 8227 94bc
00000020: 1f8a 153c 1ccb c03c 2621 88bc e2ce 7d3c
00000030: e2c8 6a3b e968 b0bc 4894 4c3c 17f4 3cbb
00000040: 86d6 283c 32d2 3f3b 8a1a 27bb ed8b b73c
00000050: be21 2a3c 4c98 e23c 1473 59bc 18ac 7f3d

dc4.0.weight f4 [24, 24, 3, 3, 3]
0.07132209 0.14396259 0.059120327 0.13923788 0.15108946 0.14960496 0.040549457 0.17513452
0.062712066 -0.021994136 0.17773867 0.17699178 0.051619392 0.1164807 0.22515409 0.07293899
0.19839886 0.096680924 0.12123377 0.15426204 0.16440502 0.045635335 0.24095227 0.17563787
0.06741629 0.1290894 0.15761474 0.09811449 0.043856107 0.00850067 0.08189737 0.0046467246
0.14253958 0.011650522 -0.06546929 0.059638295 0.023813957 0.03288848 0.14805403 0.1551042
-0.086043224 0.1513058 0.19950067 0.05790781 -0.02205598 0.009811236 0.1444352 0.10588063
-0.031088363 0.091797814 0.10230214 -0.025858857 0.09318605 0.075339526 -0.15064041 -0.12817194
-0.16538516 -0.13549761 -0.1284047 -0.0719646 -0.0029931506 0.012858571 -0.017654289 -0.16334283
-0.09356121 -0.17598426 -0.122721344 -0.008879539 -0.049393002 -0.012263198 -0.025568863 -0.016591039
-0.15382217 -0.08432492 -0.082619555 -0.065700345 0.050373983 -0.0661395 -0.08873916 0.019126972
-0.09790916 -0.009501012 0.014270783 -0.016612234 -0.047729004 0.018344447 -0.03333439 -0.038267568
-0.010239482 0.012782607 0.020030187 0.14994626 0.050712224 0.12275503 0.05630805 0.064281836
0.11852614 0.0876038 0.061743308 0.0025473663 0.026782842 -0.0037221033 -0.0144566195 0.059506234
0.024990387 0.010578865 0.00023518546 -0.033159 0.050961867 0.0024686907 -0.013819715 0.02754445
-0.010600613 0.0020025529 -0.019027546 0.039126936 0.014276024 0.020453887 -0.08022212 0.010687225
0.037806544 -0.17369236 -0.0036814013 0.019030562 0.14173083 0.015609118 -0.023594406 -0.011099983
0.027991591 0.05154878 -0.03269134 0.04068623 0.022567589 0.02752442 0.00031739898 -0.030444028
-0.029354494 0.024301672 0.002873936 0.09518805 0.012172954 -0.019355763 0.01927863 -0.029339613
-0.010388591 -0.12021917 -0.018100707 0.023143971 -0.009800364 0.038564 0.072920986 0.04896953
-0.0007031801 -0.025761863 0.023279937 -0.0005405509 -0.039046817 -0.0702887 -0.002156013 -0.02612123
0.0056276387 0.047629397 -0.08095731 -0.061050612 -0.020553587 -0.058398712 -0.04118688 -0.07076671
-0.003070629 0.058756452 0.021825833 -0.17019388 -0.10228732 0.016820783 -0.12125659 -0.21093057
-0.105680555 -0.0567166 -0.080779895 0.017446034 0.014185784 -0.0196402 0.010077606 -1.2198149e-05
-0.0704239 -0.001419205 -0.006800778 0.0071542254 0.023383437 -0.06678659 -0.055605203 -0.005832978
-0.033580307 0.045264855 -0.03600958 -0.035988513 -0.031766262 -0.02453097 -0.08650179 -0.025040125
0.0014794057 -0.09244796 0.031561203 0.0710979 -0.0011495493 0.028763713 0.00066575746 0.0011391259
-0.043528132 0.006358274 -0.06139065 0.023478054 -0.0016241464 -0.054132678 -0.019788587 -0.09346419
-0.02999952 0.005736977 0.031708937 0.062723204 0.057711855 0.047637813 -0.018496526 0.078101315
0.029487072 9.2966275e-06 0.051922385 0.028455986 0.12124062 -0.0006707533 0.010953859 -0.037173837
-0.03588804 0.046083227 0.0064755655 0.02760873 0.07463307 0.064320326 -0.0022222586 -0.007128585
0.018507304 -0.036974236 0.008474365 0.009870896 -0.022814063 0.053641237 0.0037797226 0.0034051274
0.059646 0.042790767 0.032220952 0.023287995 -0.0036930079 0.01597847 -0.02402582 0.050258636
00000000: 5111 923d ee6a 133e 2828 723d 6094 0e3e
00000010: 32b7 1a3e 0b32 193e 3017 263d 7756 333e
00000020: 2f6f 803d 0c2d b4bc 2001 363e 553d 353e
00000030: db6e 533d 6f8d ee3d cb8e 663e 0a61 953d
00000040: 1229 4b3e a600 c63d 6949 f83d def6 1d3e
00000050: ca59 283e 1eec 3a3d 31bc 763e 6ada 333e
00000060: 8d11 8a3d 0330 043e c265 213e 40f0 c83d
00000070: 76a2 333d 6546 0b3c cfb9 a73d 8d43 983b
00000080: e5f5 113e d5e1 3e3c c314 86bd 4947 743d
00000090: 7d15 c33c 12b6 063d 7a9b 173e a3d3 1e3e
000000a0: 6e37 b0bd e8ef 1a3e e749 4c3e bd30 6d3d
000000b0: beae b4bc 4ebf 203c d2e6 133e f2d7 d83d
000000c0: 06ad febc 7e00 bc3d c983 d13d f4d5 d3bc
000000d0: 54d8 be3d 9c4b 9a3d 7b41 1abe 813f 03be
000000e0: ba5a 29be e3bf 0abe 867c 03be 2d62 93bd
000000f0: bc28 44bb c1ac 523c ba9f 90bc 5843 27be
00000100: 059d bfbd 3835 34be 5455 fbbd 7c7b 11bc
00000110: 5150 4abd 95eb 48bc cb75 d1bc eee9 87bc
00000120: 8f83 1dbe 8bb2 acbd 7134 a9bd e78d 86bd
00000130: f354 4e3d 2574 87bd e0bc b5bd 2bb0 9c3c
00000140: 9984 c8bd 22aa 1bbc 01d0 693c 6116 88bc
00000150: 7d7f 43bd 1847 963c a489 08bd 74be 1cbd
00000160: 80c3 27bc 246e 513c 5916 a43c 838b 193e
00000170: 9fb7 4f3d fd66 fb3d 45a3 663d 32a6 833d
00000180: d5bd f23d 9f69 b33d 8de6 7c3d b7f1 263b
00000190: b167 db3c 88ee 73bb 75db 6cbc cfbc 733d
000001a0: a4b8 cc3c fa52 2d3c 1e9c 7639 bbd1 07bd
000001b0: 64bd 503d c2c9 213b 166c 62bc e6a4 e13c
000001c0: 32ae 2dbc 433d 033b a8df 9bbc 9143 203d
000001d0: fce5 693c e98e a73c 7f4b a4bd 7819 2f3c
000001e0: 09db 1a3d 69dc 31be aa43 71bb fbe5 9b3c
000001f0: e321 113e 63bd 7f3c 0e49 c1bc b4dc 35bc
00000200: 9f4e e53c d024 533d 5be7 05bd 9ba6 263d
00000210: aadf b83c e47a e13c 9268 a639 c165 f9bc
00000220: d678 f0bc 4d14 c73c a558 3c3b f4f1 c23d
00000230: 1271 473c fa8f 9ebc 38ee 9d3c a159 f0bc
00000240: e934 2abc 7835 f6bd ef47 94bc 6d98 bd3c
00000250: b591 20bc 49f5 1d3d 9957 953d 4694 483d
00000260: 9e55 38ba 8b0a d3bc 91b5 be3c c2b3 0dba
00000270: 8eef 1fbd 86f3 8fbd e54b 0dbb 31fc d5bc
00000280: 0e68 b83b 0b17 433d f2cc a5bd 3510 7abd
00000290: ff5f a8bc 7d33 6fbd 93b3 28bd 23ee 90bd
000002a0: 9b3c 49bb 9baa 703d 17cc b23c 4e47 2ebe
000002b0: 047c d1bd bdcb 893c 6055 f8bd 2ffe 57be
000002c0: 0c6f d8bd aa4f 68bd ee6f a5bd fcea 8e3c
000002d0: 7e6b 683c 7ce4 a0bc 8b1c 253c a7a6 4cb7
000002e0: 683a 90bd 9e04 baba 10d9 debb fe6d ea3b
000002f0: 9f8e bf3c 68c7 88bd 48c2 63bd 9122 bfbb
00000300: 818b 09bd a467 393d c87e 13bd b168 13bd
00000310: 571d 02bd 2cf5 c8bc da27 b1bd f320 cdbc
00000320: 9ee8 c13a 5b55 bdbd 5246 013d c79b 913d
00000330: 79ac 96ba e1a1 eb3c 3a86 2e3a b94e 953a
00000340: 8e4a 32bd 1159 d03b c374 7bbd 0c55 c03c
00000350: 4fe1 d4ba 3aba 5dbd ad1b a2bc 276a bfbd
00000360: 8ec1 f5bc 40fd bb3b 3be1 013d 0675 803d
00000370: 4463 6c3d de1f 433d 0786 97bc 95f3 9f3d
00000380: df8e f13c b6f8 1b37 91ac 543d 871c e93c
00000390: 014d f83d 7ed5 2fba d177 333c 9843 18bd
000003a0: 56ff 12bd c4c1 3c3d fb30 d43b b42b e23c
000003b0: 39d9 983d 60ba 833d 50a3 11bb e896 e9bb
000003c0: a19c 973c 4c72 17bd 10d8 0a3c 8ab9 213c
000003d0: 8fe4 babc eab6 5b3d 39b5 773b 8f28 5f3b
000003e0: 5d4f 743d 5f45 2f3d 1efa 033d 77c6 be3c
000003f0: 6406 72bb 48e5 823c ccd1 c4bc 00dc 4d3d

dc4.0.bias f4 [24]
-0.014416529 0.03778188 -0.0011311733 0.030643072 0.005359896 -0.015951017 0.04009075 -0.016875481
0.0115144225 -0.0065532387 0.0396333 -0.013092384 0.009121577 0.027142614 -0.03067586 0.0516138
0.0022403083 0.058452405 0.022416664 -0.00061715476 -0.0035898865 0.017916188 -0.053959556 0.0014988674
00000000: 4e33 6cbc 2cc1 1a3d e143 94ba 2e07 fb3c
00000010: 11a2 af3b b5ab 82bc 3336 243d 733e 8abc
00000020: fda6 3c3c 8dbc d6bb 8756 223d 7081 56bc
00000030: ab72 153c 305a de3c f14b fbbc fe68 533d
00000040: 23d2 123b ca6b 6f3d 27a3 b73c 8ec8 21ba
00000050: 4d44 6bbb f8c4 923c b204 5dbd a575 c43a

dc5.0.weight f4 [16, 22, 3, 3, 3]
0.035934445 -0.008758097 0.0010817589 0.06797963 0.041398916 0.05309765 0.024155527 0.09695069
0.0517873 0.048262887 -0.026473215 0.010539451 0.059778273 0.03247939 0.03845069 0.08257137
0.049955897 0.09570625 0.036027953 0.015377105 0.029967133 0.061590645 0.042873833 0.0046155252
0.0901382 0.10822324 0.0861854 -0.0032415949 -0.011099694 -0.024255332 -0.057799734 -0.008212731
-0.004943458 -0.00034309184 -0.03911169 -0.002044213 -0.022198904 0.021937652 0.01706069 -0.033864595
-0.024282053 0.009028553 -0.04347547 0.029032193 -0.019150093 0.0006562432 -0.009518673 0.022482928
0.014944912 0.0016727636 -0.03853768 0.03298508 -0.026050968 -0.012706308 0.035486642 0.039890368
-0.0020842697 0.044745617 0.06321104 -0.020264115 0.058138337 0.012222739 0.004662117 -0.0006961512
0.027148033 -0.0028792536 0.04709949 0.037791118 0.012742774 0.011617146 0.04829198 0.030704292
-0.0026978448 -0.016141636 0.040087327 0.030070571 0.044846363 -0.0150587475 0.019471264 -0.009187746
0.044934515 0.0039335717 0.009431699 0.008602787 -0.03689035 -0.007185232 0.033653267 0.019021794
-0.031223115 0.0010614586 0.02310592 0.024089627 -0.011847731 0.0416688 0.011734229 0.013393394
-0.011138456 0.033944465 -0.0017663678 0.030867169 0.03976295 -0.022857077 -0.007172666 -0.0059196837
-0.028992996 -0.02052603 -0.00841899 -0.009444479 0.013872051 -0.0046529425 -0.019167403 0.00020030353
0.02553056 -0.027743109 0.024691995 0.023897547 0.031594556 -0.034487907 -0.034274597 0.015100784
-0.0007558137 0.024527317 -0.045537353 0.01895538 -0.025544303 0.038799603 -0.027778931 -0.019335665
-0.04602433 0.012154278 -0.05000951 -0.03514074 -0.0045736837 0.0075265607 0.032273993 0.061730385
0.037633482 0.03371242 0.017480802 0.0758258 0.017340448 0.0503451 0.038645327 0.06594882
0.049281206 0.06749224 0.0634152 0.11010685 0.08515387 0.064259015 0.06864899 0.14387639
0.035881378 0.027202869 0.07209345 0.011595172 0.07639587 0.13472413 0.057673797 0.08655092
0.08247806 0.041507687 0.040991176 -0.011589644 0.02032959 0.00043012027 0.004955846 -0.023247404
-0.0029838511 0.0051084836 0.006599527 0.025390923 0.022034096 0.0032835067 0.034593325 0.023754431
0.020312058 0.008349332 0.013189691 -0.016644275 0.025122648 -0.01987168 0.052404292 0.008446392
0.019889636 -0.0049780407 -0.018761689 -0.03958082 -0.018790904 -0.0010954582 -0.042802047 0.009613495
0.036465038 0.011893079 0.001180218 0.020150285 0.022570902 0.04881804 0.031566616 -0.011778239
-0.014362416 0.048701204 -0.024382468 -0.0037883723 0.017043656 0.015094885 0.00998895 -0.0037006752
0.009768312 0.010972329 0.015290584 -0.010702578 0.0039081443 0.07007961 0.022641523 0.043478943
-0.01853843 0.032432716 0.04767888 0.047566243 0.055572625 0.056324836 0.017408505 0.025280092
0.011347006 0.020829363 0.017893417 0.037365843 0.010317348 0.027622573 0.04226356 -0.005311121
0.00021550275 -0.0647503 0.01670293 0.059964087 0.0036267166 0.043337505 0.051097337 0.053001113
0.041436654 0.030869005 -0.022396486 -0.010546926 -0.0056380597 0.009035403 -0.016031042 -0.07512537
0.027500613 -0.024128675 -0.051712092 0.011547236 -0.052140802 -0.018362138 -0.005725077 -0.068609394
00000000: ff2f 133d 1f7e 0fbc cec9 8d3a e738 8b3d
00000010: e991 293d ec7c 593d d0e1 c53c 158e c63d
00000020: eb1e 543d 4eaf 453d 5bde d8bc a9ad 2c3c
00000030: 10da 743d 1c09 053d 797e 1d3d 2e1b a93d
00000040: 8e9e 4c3d a301 c43d 0c92 133d 41f0 7b3c
00000050: a27d f53c 7946 7c3d 799c 2f3d d53d 973b
00000060: 609a b83d 25a4 dd3d f981 b03d f070 54bb
00000070: 7edb 35bc 1eb3 c6bc 6abf 6cbd b18e 06bc
00000080: bbfc a1bb 02e1 b3b9 9433 20bd 34f8 05bb
00000090: 7ada b5bc 97b6 b33c dcc2 8b3c 9ab5 0abd
000000a0: 28eb c6bc 7fec 133c 5613 32bd ecd4 ed3c
000000b0: a8e0 9cbc bc07 2c3a 35f4 1bbc 1e2e b83c
000000c0: 81db 743c a240 db3a b0d9 1dbd 5d1b 073d
000000d0: d768 d5bc 1e2e 50bc 715a 113d 1564 233d
000000e0: 3e98 08bb 2e47 373d ca74 813d ee00 a6bc
000000f0: 7722 6e3d e241 483c acc4 983b eb7d 36ba
00000100: 8d65 de3c dcb1 3cbb 65eb 403d dcca 1a3d
00000110: 11c7 503c d855 3e3c d0cd 453d 9187 fb3c
00000120: 53ce 30bb 773b 84bc 9c32 243d 8f56 f63c
00000130: d2b0 373d f7b8 76bc 3382 9f3c 3388 16bc
00000140: 410d 383d 31e5 803b 6a87 1a3c b4f2 0c3c
00000150: 561a 17bd 1872 ebbb 02d8 093d 98d3 9b3c
00000160: 9ec7 ffbc a420 8b3a a048 bd3c 9c57 c53c
00000170: fc1c 42bc e7ac 2a3d ec40 403c f76f 5b3c
00000180: 127e 36bc 5a09 0b3d 7885 e7ba 25dd fc3c
00000190: 7ade 223d c43e bbbc af08 ebbb e8f9 c1bb
000001a0: b882 edbc 3426 a8bc ceef 09bc 04bd 1abc
000001b0: 9947 633c b677 98bb f504 9dbc 9208 5239
000001c0: 7725 d13c 8445 e3bc de46 ca3c cac4 c33c
000001d0: 4b69 013d 3143 0dbd 8563 0cbd 4769 773c
000001e0: cc21 46ba 83ed c83c 6085 3abd 5048 9b3c
000001f0: 4942 d1bc 55ec 1e3d a490 e3bc d465 9ebc
00000200: 0284 3cbd bd22 473c c6d6 4cbd bdef 0fbd
00000210: d7de 95bb 5ea1 f63b bc31 043d 00d9 7c3d
00000220: 9125 1a3d 0916 0a3d e633 8f3c 8f4a 9b3d
00000230: 8e0d 8e3c aa36 4e3d 904a 1e3d 2d10 873d
00000240: 17db 493d 5f39 8a3d d4df 813d b37f e13d
00000250: 2765 ae3d 3b9a 833d d797 8c3d 5554 133e
00000260: 5af8 123d 8dd8 de3c bba5 933d adf9 3d3c
00000270: 7075 9c3d 1ff5 093e 5c3b 6c3d 9c41 b13d
00000280: 42ea a83d f703 2a3d 5de6 273d 7de2 3dbc
00000290: 3e8a a63c c481 e139 a664 a23b 5771 bebc
000002a0: b78c 43bb 1165 a73b d840 d83b a000 d03c
000002b0: d980 b43c 1a30 573b bbb1 0d3d a798 c23c
000002c0: 7965 a63c a3cb 083c 9319 583c 9359 88bc
000002d0: 03ce cd3c efc9 a2bc e2a5 563d bc62 0a3c
000002e0: 97ef a23c d51e a3bb 1db2 99bc 7f1f 22bd
000002f0: 62ef 99bc 7a95 8fba 3351 2fbd ec81 1d3c
00000300: 5d5c 153d 30db 423c 8bb1 9a3a 3612 a53c
00000310: 9de6 b83c 6df5 473d ff4b 013d 84f9 40bc
00000320: 5750 6bbc ea7a 473d bebd c7bc 5746 78bb
00000330: 239f 8b3c 8950 773c b1a8 233c 0787 72bb
00000340: 450b 203c 49c5 333c 5c85 7a3c de59 2fbc
00000350: e40f 803b e685 8f3d b77a b93c fa16 323d
00000360: e8dd 97bc 2bd8 043d ee4a 433d d2d4 423d
00000370: 1fa0 633d dfb4 663d 489c 8e3c 3218 cf3c
00000380: cbe8 393c 57a2 aa3c 3795 923c ed0c 193d
00000390: 180a 293c bc48 e23c 8e1c 2d3d ea08 aebb
000003a0: 94f8 6139 ce9b 84bd 95d4 883c e79c 753d
000003b0: 35ae 6d3b ab82 313d 714b 513d b217 593d
000003c0: 7bb9 293d ffe0 fc3c d678 b7bc 04cd 2cbc
000003d0: 79bf b8bb 3a09 143c 8853 83bc 54db 99bd
000003e0: f748 e13c 80a9 c5bc 0fd0 53bd 9e30 3d3c
000003f0: 9891 55bd 326c 96bc 6d99 bbbb 1583 8cbd

dc5.0.bias f4 [16]
-0.0038990986 0.053622857 -0.027433848 -0.0021196946 0.029073492 -0.0089434935 0.00093539356 -0.017729456
-0.02976976 0.08955552 0.028294744 0.042338133 -0.058440357 -0.01483101 -0.008039275 0.052014675
00000000: 0588 7fbb a4a3 5b3d f3bc e0bc 93ea 0abb
00000010: 882b ee3c bb87 12bc 3335 753a 5d3d 91bc
00000020: b6df f3bc e268 b73d 61ca e73c c06a 2d3d
00000030: 285f 6fbd c4fd 72bc 2ab7 03bc 570d 553d

dc6.0.weight f4 [16, 16, 3, 3, 3]
0.003664233 0.010449269 0.009256441 0.004904241 0.003634327 0.014757293 0.046933737 0.019353261
0.018918104 0.06757419 0.06094614 0.019617854 0.019111156 0.08963336 0.043487266 -0.001851714
0.06504232 0.0016239333 -0.009795924 -0.006506527 0.026149131 0.030436631 0.09408635 -0.0034128812
0.0038035978 0.0017803168 0.03808262 -0.022226082 -0.00058038335 -0.018941376 -0.009077095 -0.049955238
0.03498615 0.004087869 0.04253073 0.050364837 0.030255519 -0.05258412 0.011292013 -0.08456692
-0.06457407 0.0063690525 -0.014204034 0.020504702 0.065960586 0.031147692 0.052285314 -0.0137703605
-0.033960544 -0.010598455 -0.01183636 -0.021161122 -0.04345562 0.03274503 -0.07427147 -0.03507395
0.06537975 -0.1943711 -0.06481351 -0.016767535 -0.024729356 -0.1105386 0.0089850845 -0.06481342
0.005020383 0.031085158 -0.07404502 -0.114698246 0.14576946 -0.16170704 -0.03494894 0.04927218
0.00650052 -0.010013041 0.008690046 -0.015349289 0.061763845 0.025910314 -0.042463917 -0.0053332793
-0.031083371 -0.0037818337 -0.009486631 0.015601646 0.0069813197 -0.024303654 0.020631852 -0.022968186
-0.0035001314 0.008537814 0.045502417 -0.038584772 0.047253873 -0.03291411 -0.2686144 -0.0658228
0.012228739 -0.1046563 -0.06331284 0.047479987 0.010551663 -0.025193565 0.06344407 -0.1934666
0.0017869015 0.0165818 -0.0645598 -0.020310905 -0.0073293494 -0.011249323 -0.036895532 -0.060692243
0.060151756 0.03526307 -0.018705558 0.06676183 -0.021884471 0.04695714 -0.004936972 -0.011377887
0.037244882 -0.05565434 -0.015111164 0.022048479 0.056945197 0.020641059 -0.00954367 -0.040503077
0.0043578288 -0.020056197 -0.064056 -0.1060165 -0.0010326206 -0.010710792 -0.014394785 0.0120015405
0.041018628 -0.022023408 0.07590907 0.058237933 0.014409114 -0.023112202 0.026529474 -0.037256435
0.02464688 0.11468129 0.08147576 -0.10023568 -0.07626165 0.19770586 0.01425469 -0.06393019
-0.020566534 0.02354257 -0.023170423 -0.047328573 0.032670047 0.055682316 0.013309093 -0.010678259
0.005548658 0.013070544 -0.023695793 -0.082335785 0.0043939436 0.021650566 0.0314762 -0.031958062
0.008194186 0.010207142 -0.031215942 0.010069448 0.011622629 -0.02980384 0.07829331 0.082703955
0.02734873 0.016122073 0.030467795 -0.007255218 -0.018506993 -0.016342942 -0.008200133 -0.01213948
-0.051612716 -0.02644322 -0.014497711 0.0152435135 -0.05927978 -0.057658363 0.049711153 0.009093561
-0.03562618 0.035063285 0.010595334 0.007826857 0.052120827 -0.040251892 -0.06282092 0.06305328
-0.013268673 -0.037237816 0.125713 0.019979447 0.028780395 0.032494776 -0.030027777 -0.00797587
-0.037339192 -0.0013063662 0.0034720073 6.701436e-05 -0.001641735 -0.03537497 -0.035726808 -0.01694903
-0.0054726102 -0.009173189 -0.03190402 -0.0135157 -0.007359408 0.02074437 -0.026085537 0.04360768
-0.0329709 -0.0002190524 -0.15420228 -0.0016428378 -0.108975545 -0.3632683 0.045628212 0.061174624
0.11159147 0.15609917 0.02477071 0.046546813 0.0023670397 -0.00034336906 0.038426828 0.024694921
-0.05011721 0.15203491 -0.025527902 -0.0005098088 -0.0017997524 0.034034893 -0.008196217 -0.063333206
0.032479476 0.012866204 -0.09592391 -0.024667053 0.006783689 0.042401075 0.058093518 0.019248877
00000000: a123 703b 6933 2b3c 54a8 173c c1b3 a03b
00000010: e42d 6e3b 93c8 713c 973d 403d bb8a 9e3c
00000020: 24fa 9a3c 5664 8a3d a9a2 793d 9fb5 a03c
00000030: 008f 9c3c b291 b73d b41f 323d 36b5 f2ba
00000040: e834 853d 29da d43a 157f 20bc b434 d5bb
00000050: b436 d63c 3e56 f93c 58b0 c03d a5aa 5fbb
00000060: c845 793b 8559 e93a 85fc 1b3d 7913 b6bc
00000070: de24 18ba f22a 9bbc 19b8 14bc dd9d 4cbd
00000080: a34d 0f3d 88f3 853b b434 2e3d 5c4b 4e3d
00000090: 6cda f73c 7262 57bd 2302 393c 6c31 adbd
000000a0: 693f 84bd 7cb3 d03b 09b8 68bc 7af9 a73c
000000b0: 5816 873d 7229 ff3c 2029 563d 149d 61bc
000000c0: 361a 0bbd 24a5 2dbc 4bed 41bc 175a adbc
000000d0: 85fe 31bd a71f 063d a41b 98bd b4a9 0fbd
000000e0: d2e5 853d 3809 47be f2bc 84bd 125c 89bc
000000f0: 3895 cabc 1062 e2bd 2d36 133c e6bc 84bd
00000100: 0682 a43b 4da6 fe3c eaa4 97bd eae6 eabd
00000110: 9744 153e 8896 25be 9f26 0fbd a0d1 493d
00000120: 5002 d53b bd0d 24bc b260 0e3c 967b 7bbc
00000130: 16fc 7c3d de41 d43c a5ee 2dbd cac2 aebb
00000140: 8ea2 febc a4d8 77bb d06d 1bbc 0c9e 7f3c
00000150: 8ec3 e43b 7518 c7bc 2104 a93c c727 bcbc
00000160: 7662 65bb 30e2 0b3c be60 3a3d 110b 1ebd
00000170: 478d 413d f2d0 06bd d487 89be 1bce 86bd
00000180: 0d5b 483c 0b56 d6bd 2aaa 81bd 607a 423d
00000190: e2e0 2c3c bc62 cebc f7ee 813d 1c1c 46be
000001a0: 7736 ea3a 8ed6 873c ee37 84bd 0e63 a6bc
000001b0: 0a2b f0bb 154f 38bc c51f 17bd 6e98 78bd
000001c0: b061 763d 0270 103d 663c 99bc 6dba 883d
000001d0: 1047 b3bc 2156 403d 53c6 a1bb 516a 3abc
000001e0: 178e 183d cef5 63bd d194 77bc 039f b43c
000001f0: 5e3f 693d 7017 a93c 0e5d 1cbc 8ee6 25bd
00000200: 1ecc 8e3b e54c a4bc cb2f 83bd 2e1f d9bd
00000210: ff58 87ba 517c 2fbc 1bd8 6bbc 1ca2 443c
00000220: 2603 283d 6f6a b4bc 3776 9b3d e68a 6e3d
00000230: 3414 6c3c cd55 bdbc 5754 d93c 349a 18bd
00000240: 41e8 c93c 06de ea3d c3dc a63d 5d48 cdbd
00000250: 112f 9cbd 6873 4a3e 818c 693c d5ed 82bd
00000260: 267b a8bc 59dc c03c e6cf bdbc 9bdb 41bd
00000270: 07d1 053d 2413 643d 620e 5a3c ddf3 2ebc
00000280: 84d1 b53b d625 563c ae1d c2bc aa9f a8bd
00000290: 12fb 8f3b 875c b13c 30ed 003d 75e6 02bd
000002a0: e840 063c db3b 273c 93b8 ffbc 53fa 243c
000002b0: d76c 3e3c 2f27 f4bc 3e58 a03d b160 a93d
000002c0: 720a e03c 7012 843c 9997 f93c 2ebd edbb
000002d0: fa9b 97bc a2e1 85bc da59 06bc abe4 46bc
000002e0: db67 53bd 749f d8bc cf87 6dbc eebf 793c
000002f0: 5bcf 72bd 2d2b 6cbd ec9d 4b3d 29fd 143c
00000300: c2ec 11bd 859e 0f3d 0d98 2d3c 383c 003c
00000310: a67c 553d 2bdf 24bd 41a8 80bd 1422 813d
00000320: d964 59bc ae86 18bd e9ba 003e f0ab a33c
00000330: ddc4 eb3c 3e19 053d d0fc f5bc 39ad 02bc
00000340: fbf0 18bd 603a abba 9e8a 633b 108a 8c38
00000350: 7c2f d7ba 58e5 10bd 4656 12bd b1d8 8abc
00000360: 9553 b3bb 254b 16bc caad 02bd f470 5dbc
00000370: 3027 f1bb 19f0 a93c 56b1 d5bc f79d 323d
00000380: 7f0c 07bd 6eb1 65b9 34e7 1dbe 7d54 d7ba
00000390: 922e dfbd 4dfe b9be a6e4 3a3d 3e92 7a3d
000003a0: 128a e43d 76d8 1f3e f2eb ca3c dfa7 3e3d
000003b0: 5620 1b3b 3706 b4b9 7365 1d3d 014d ca3c
000003c0: b447 4dbd 0aaf 1b3e e41f d1bc b0a4 05ba
000003d0: abe5 ebba 2c68 0b3d 6d49 06bc d7b4 81bd
000003e0: 3309 053d c5cc 523c c173 c4bd 8f12 cabc
000003f0: b549 de3b c0ac 2d3d 78f3 6d3d d2af 9d3c

dc6.0.bias f4 [16]
0.0049874624 -0.02121062 -0.038895957 -0.42628556 0.06888087 -0.0031627442 0.005886944 0.05239353
-0.075083144 0.08495242 -0.008599007 0.01586864 -0.015429768 0.036930557 0.017710915 0.036623552
00000000: de6d a33b e5c1 adbc 5e51 1fbd 1a42 dabe
00000010: 6a11 8d3d 0b46 4fbb 44e7 c03b 999a 563d
00000020: 31c5 99bd 89fb ad3d d9e2 0cbc f3fe 813c
00000030: 23cd 7cbc 7f44 173d 7b16 913c 9402 163d
