3D_LessNet/L2ss_2_Chan_4_Smth_5.0_LR_0.0001_Val/DiceVal_0.74657_Epoch_000000494.pth (torch, 515546 bytes, 25 tensors)

eninput.0.weight f4 [32, 6, 3, 3, 3]
00000000: 8def 253d fa04 4e3d 8989 3fbd 68b2 f03d
00000010: 3f16 adbb e59d 983c c8c0 23be cd0f 05be
00000020: 08eb d1bd d045 a43d e062 e93d 8811 bcbc
00000030: 8a3f c6bd 0fae d83d d7b3 c43d c7e5 fbbd
00000040: 262a c6bc e452 98bd 2e3b a5bd f3dc e03c
00000050: 1a3c d13b ad7c 58bd 8a09 063c c8f0 9dbd
00000060: 67f6 93bd 7799 4cbd b2e7 ebbc 6dfb 843c
00000070: 6002 05be 98d9 b4bd 3b9c 173d 8ffe cd3d
00000080: 9f14 833b 791f 99bd a20a f13c cb8b d03d
00000090: a2ce 63bd f05b e0bd 9f0c 8ebd 5e25 95bd
000000a0: 6473 873c 5da5 353d 09e7 6a3d ab34 8c3d
000000b0: 3d2b 013e 88eb 6dbd 3112 b83d 5196 b83d
000000c0: ad52 883b 5402 c73d f401 c7bc e635 1e3d
000000d0: a96d d53d db84 4abd e02d 873d cf03 49bd
000000e0: fe39 853d 997a a33d 27ce 503d bcc6 093b
000000f0: 0ae3 a23d 0bbe ccbc e428 8abd 1aa6 6fbd
00000100: e5a6 4d3d 2c6a dfbc 9a37 0f3d b4cb c6bc
00000110: 959c 153d 091e 5abd 8aa6 1bbd b003 e1bc
00000120: 3911 00bd 5ac1 9c3d e3b4 bd3d e20a 813d
00000130: abf5 963d 54b0 b7bd 00e9 353c c8de ca3d
00000140: 9b0f ed3b c23b c13c e2fa 79bd ae4e 483d
00000150: 8a2f 9c38 ec22 85bd 1f65 aebd 02ca 7d3d
00000160: 25df 89bc 2524 d43a ed24 42bc 4a52 03bd
00000170: 7147 eb3c 1e52 c8bc 386c c23c 82a6 d43c
00000180: effb 273d 1811 82bd ffe6 1bbd 8f61 f43c
00000190: e090 413d b8aa 9e3c c62e 7cbd 3f36 89bd
000001a0: d552 51bb 8d87 c3bb 291a 6d3d 9557 f6bc
000001b0: edb9 f43d 99c6 54bd b32e ae3c 2a98 edbc
000001c0: 852a 6a3d 48e9 b1bd 8d23 083e 8b0e 583d
000001d0: b674 c0bd ed0c fdbc 19cc f1bd 5e93 90bd
000001e0: 1075 88bd 7da6 333e bdaf a0bb a834 dfba
000001f0: 4ba6 b53e a732 283e d9d6 90bd ccbf 59be
00000200: e285 c1bd 7893 52be e39b debd ccde b23d
00000210: 8682 4f3d f75b 003e e390 6c3d a19c 91bd
00000220: af83 083c 60c5 06bc 5ed4 e53d 50c7 723c
00000230: ce99 3b3d 4c66 b4bc 0a9b bbbd 703a 5f3b
00000240: e105 ecbc 8f3c c4bd d758 573d c29b 9dbd
00000250: 9ec4 95bd da78 e3bc f2cc c43c e62c 333d
00000260: a108 253d 8ebe cf3c 0967 e5bc 2429 863c
00000270: dbe8 8ebd 8c81 ffbd 6786 1cbd 8fae 233d
00000280: c51d 03be 8201 b1bd 98a5 81ba 8c5c 763d
00000290: daf9 813d 5cc1 44be a26d 4fbe fc0a b9bd
000002a0: f44f f8bd 59ed 66bd af17 b6bd 8eaa 953d
000002b0: 3497 daba 7725 5c3d 1d06 04be 3223 2cbd
000002c0: dce6 15bd f313 b8bd 729a a1bd 5655 d0bc
000002d0: 6d5b b43b 4978 b93d be82 05bc fec1 2bbe
000002e0: ac70 88bd d6c6 803d c993 18bc 6668 15be
000002f0: 053b 8dbd ce08 c13c 01bc 3abd da4b 87bd
00000300: 8b9a 3abd d07c 063b bf74 9fbd 1016 b73d
00000310: 53db 3c3d ffdf 833d 0a6c 4a3c 7c6e 093c
00000320: 0d7c 833d 63f6 a53d 18f3 9dbb 0798 453c
00000330: 0190 3f3d 2551 513d 723e b63d f62a 76bd
00000340: d2b7 9c3d 527f 7cbd 884f 833d afe7 2bbd
00000350: 19fe a33b ff25 81bc 4245 5b3c bb2e e13d
00000360: 6add b53d 3fd9 173d 5f93 8a3c 4b84 033d
00000370: af9e 5dbd 1948 9f3c 7d5b fcbd 1281 22bc
00000380: 55dc 64bd c0ea 793d 991e 1cbd 7121 e23c
00000390: 99c9 363d 4bb0 8f3b 630c dabb 23ad d1bd
000003a0: 5ae7 a93c 7713 aa3d b4fb 733c 568a 383c
000003b0: 952f 563d 92f8 74bd 8959 c3bc 191e febb
000003c0: 30c0 c6bd fc34 33bd 2eb8 013e 4337 213d
000003d0: cdec df3c e0ac 88bc 77ff 66bc 0f69 44bc
000003e0: 3b83 473d 061a 84bd 2fcb d4bb 211b 7cbd
000003f0: 9d84 423d 8654 093c b3c0 fb3c 291f 79bd
0.040511657 0.050297715 -0.046762023 0.11752778 -0.005282193 0.018629977 -0.15991509 -0.12994309
-0.10249907 0.08021128 0.11395812 -0.022957578 -0.09680088 0.10580074 0.09604614 -0.12299686
-0.02419002 -0.07437685 -0.08067928 0.027449107 0.0063853385 -0.052853275 0.008180985 -0.07711941
-0.07224732 -0.049951043 -0.028797004 0.01623317 -0.12989187 -0.08830565 0.037014227 0.10058319
0.004000261 -0.07476706 0.029424015 0.101829134 -0.055616982 -0.10955036 -0.06936001 -0.07282518
0.016534515 0.044347156 0.05734924 0.06845983 0.1261415 -0.05808595 0.08987845 0.090130456
0.0041602463 0.09717241 -0.024292924 0.03862562 0.10421307 -0.049443107 0.06600547 -0.049075898
0.06505202 0.07982368 0.050977852 0.0021022996 0.079534605 -0.024992963 -0.067460805 -0.058508016
0.05020799 -0.027272306 0.034965135 -0.024267055 0.03652628 -0.0532513 -0.03800062 -0.027467579
-0.031266425 0.076540664 0.09263017 0.06300904 0.07371076 -0.08969179 0.011102915 0.099057734
0.0072345263 0.023588065 -0.061030276 0.04890316 7.4475145e-05 -0.065008014 -0.08515381 0.061960228
-0.016830036 0.0016185088 -0.011849624 -0.0320609 0.02872059 -0.024453219 0.023733243 0.025958303
0.041011747 -0.063509166 -0.038062092 0.029831676 0.047257304 0.019368514 -0.061568044 -0.066998
-0.003194024 -0.0059670866 0.057886276 -0.03007106 0.11949525 -0.05194721 0.021262502 -0.029003222
0.057169456 -0.08687073 0.13294812 0.052748244 -0.09397261 -0.030889953 -0.11806507 -0.07059358
-0.06662953 0.17543979 -0.004903762 -0.0017029243 0.35478434 0.16425572 -0.07072229 -0.21264571
-0.09449364 -0.20564067 -0.10869577 0.087339014 0.050661586 0.12535082 0.057755362 -0.07109953
0.008332177 -0.008225769 0.112221465 0.014818028 0.045800976 -0.022021435 -0.09160431 0.003406193
-0.028811397 -0.09581863 0.05257496 -0.07695724 -0.073128924 -0.027767587 0.024023507 0.04374399
0.040291432 0.025359418 -0.028003233 0.01637704 -0.069780074 -0.12475881 -0.038214114 0.039961394
-0.12804325 -0.08642866 -0.000989127 0.060146853 0.063464835 -0.19214386 -0.20256665 -0.09035298
-0.12124625 -0.056378696 -0.08891236 0.07307921 -0.0016677142 0.053746667 -0.12892957 -0.042025752
-0.036597118 -0.0898818 -0.07890786 -0.025431316 0.005504063 0.09056146 -0.008148847 -0.16773221
-0.066621155 0.06287925 -0.0093125785 -0.14590606 -0.06896023 0.023563769 -0.04558945 -0.066062644
-0.04555754 0.0020521171 -0.077859394 0.08939755 0.0461076 0.06439208 0.01235486 0.008388158
0.06420145 0.08103635 -0.004820239 0.012060172 0.046768192 0.051102776 0.08898629 -0.060099564
0.076522484 -0.06164486 0.06411654 -0.041968998 0.005004656 -0.015765188 0.013383212 0.10995241
0.08880122 0.037072416 0.016915975 0.032108586 -0.05410641 0.019443559 -0.123221375 -0.009918468
-0.055874187 0.06101489 -0.038115118 0.027603837 0.044625852 0.0043850294 -0.0066543086 -0.10238101
0.0207402 0.08304494 0.014891554 0.011263451 0.05229147 -0.059807368 -0.023846405 -0.0077550528
-0.097046256 -0.0437517 0.12667915 0.039359342 0.027334595 -0.016683996 -0.0140989935 -0.011987939
0.048709136 -0.06450276 -0.006493948 -0.06154931 0.04748975 0.008381968 0.030731535 -0.060820732

eninput.0.bias f4 [32]
00000000: 79b6 893d 1fdd 213d 559c 873d d42c 04bd
00000010: 8673 3c39 dd1e 723d 1f60 0f3d bb1e 4537
00000020: c3f8 d43c 0b3c 1d3d 4044 83bd 05a1 2cbd
00000030: 2a7b 82bd 6969 e1bd 39c9 4fb9 f067 aa3c
00000040: 9f3d b13d 2bde 55bd 08b9 583d af3e 8cbd
00000050: 511d d63c c50c 7c3d e04c 073d 9cdd 60bd
00000060: 3ec4 1dbd 81b2 11bd f0a2 1cbd b6d3 6a3d
00000070: 5705 adbd 1b80 05bc c974 a938 7cd6 ba3d
0.06724257 0.039517518 0.06621615 -0.032269314 0.00017972113 0.059111465 0.035003778 1.174927e-05
0.025997525 0.03838734 -0.06409502 -0.042145748 -0.06371148 -0.110064335 -0.0001981602 0.020801514
0.086543314 -0.05221383 0.052910835 -0.068478934 0.026137026 0.061535615 0.033032298 -0.054898843
-0.03851723 -0.035570625 -0.038241327 0.05733081 -0.08448284 -0.0081482185 8.080301e-05 0.09122941

dc1.0.weight f4 [32, 32, 3, 3, 3]
00000000: 1eac 6d3c 7d2d 3c3d 6e56 cf3c 2fee 793d
00000010: a7c0 9cbc 136b 043c 9dcd 093d ac82 b03b
00000020: 957e 7a3d bbae 3c3d 2fc8 d5bc 8b99 fb3c
00000030: b1a1 793c b3f1 b0bd 17b7 c5bb 3be2 e0bc
00000040: ca0a 03bd a025 7c3d 67eb a63b 2132 863c
00000050: a887 223d 234c 013d 4f42 a63c 0ad5 ec3c
00000060: 1f41 56bb 1986 d6bc 2872 8cbc d294 b5bd
00000070: 0ea3 4fbd be22 67bd 8e75 87bc 194b c13a
00000080: da88 8ebd 648f 9f3c b149 173d a9d2 91bb
00000090: d69f bcbb fb7f 773d 8165 0fbd d6c4 a23c
000000a0: 007c 2cbd c8c4 43bd 3c9e 7abc 3568 5e3d
000000b0: 2f8f b4bb 54d4 0c3d 5063 d53d 97e3 d33c
000000c0: 0f1b 073c c11f bdbb f407 63bc 5074 a13c
000000d0: dec5 913c 4bd8 81bb 889a 2c3c 2066 093d
000000e0: 3528 f3bc 283c 5bbd 1d86 0e3d 56a5 6e3d
000000f0: b478 4e3d 23d0 03bd 21d6 783c 6a80 d73c
00000100: aa18 a23d b5e2 20ba 2479 123d c537 fc3d
00000110: 55b3 c73c 9b16 573b b8a4 6c3d cec7 5abc
00000120: b1d4 033e ea58 323d 254d faba 7040 df3c
00000130: ebb8 ca3d a98f 3a3d a724 5f3d e806 fb3c
00000140: 7506 3ebc d8aa 21bc 0ab2 ec3c dcdf f13c
00000150: f8df 69bd e35a 143c e867 093d 7cc9 e13b
00000160: 0618 adbc ae32 233d 8353 13bc 3cdc 8e3c
00000170: 620a cbbb 1f1c b4bc 9289 a53c 3718 783d
00000180: 1c11 96bd 8000 063b 7da6 373d a1f8 77bc
00000190: 9d9c 163c 53af 583d 0230 ccbb add4 49bd
000001a0: 6f4a 98bc 9258 99bd 29c7 a4bd ca4e 7d3c
000001b0: 7d10 013d 4463 773d 3ded ce3b 0528 8bbc
000001c0: c34b 143d 4682 473d 11f8 ac3b 4949 fbbc
000001d0: 55bf d53c 5ea3 743c 0d57 3e3d 1765 833d
000001e0: b3fd 6dbc 32ee ae3c da2f 7b3d cd80 933c
000001f0: 18e2 c1bb f315 e93c 7145 f4bc 0c82 27bb
00000200: 366f 823d e487 73bd 6fc1 443a d547 5a3d
00000210: ac1e ddbc 7f3d a3bc 60e8 33bc 63d3 a7bd
00000220: 1f79 c6b9 94fb 70bc dbc3 88bd 5024 013c
00000230: d881 373c 4dcb 0abd 17d7 84bd d699 4fbd
00000240: 01d5 043c 5138 74bb 1c7c 30bd 7f35 36bc
00000250: 8416 35bd 3845 cfbc 9667 f8bc c385 e7bc
00000260: ffef be3c 7571 12be 421c c7ba b005 fd3b
00000270: 6ea7 50bc a345 0e3c 005b b0bc 1ba9 3f3c
00000280: dbc4 6dbc 778e 28bd c5c7 0abd bdae 44bd
00000290: cf21 753c 4213 71bc bd0a 5fbd a54f 6cbd
000002a0: 825c 743c fe34 37bd 3c90 763b 95b0 ab3b
000002b0: 3df2 f63c 3b6f ea3c 0e35 813c f823 5e3d
000002c0: 300e ab3b cc4e 403d 6a00 5fbc 1818 ffbc
000002d0: b1ed 873c b9aa efbb 17a8 25bd 7c5f 1d3d
000002e0: 3ac9 0e3d 4bec 1bbd d35a bc3c 2b56 89bc
000002f0: c72c c1bc bde7 7cbd 3826 e2bc 2b69 083d
00000300: 0597 2ebd 065c 093d 4115 92bc d7ce 093c
00000310: 0a48 6bbd 9b03 88bd 890f 11bc 0fab 003d
00000320: c682 ab3c 84b2 4b3d 8c97 113b d437 38bc
00000330: dd42 103d 2745 7ebc 95a9 c9bd c538 a4bb
00000340: dcc2 41bc 4f26 d43b d630 8b3c 291e 323b
00000350: ac8e e6bc 9aa7 163d 9d8d 85bd f52f 54bd
00000360: d9ea a23c 9a8e 233d b916 28bd 2c2f 223d
00000370: 772a 6ebc 6044 9fbd 5b77 573d 2795 b43a
00000380: aa36 e5bc ac3d 2f3d 65cd 84ba 4fd8 f0bc
00000390: c7a4 2b3d ae2c 993c df01 823c 69a8 573c
000003a0: 92f7 123c 604c 50bc 647b 3fbd 8401 5e3d
000003b0: 184e 11bc 12af e83b 1093 eb3c 0ffb dfbc
000003c0: 83b3 5f3b 2633 a33b d2cd 26bd 9abd 40bd
000003d0: 12c8 aebc 45b4 3e3d bd2a 0d3c 8167 183d
000003e0: 96d7 26bc bdef 53bd 7d6d d9bc 1870 5abc
000003f0: 2b54 12bd 2395 d6bc 0571 8d3d 87bf 793c
0.014506368 0.04594182 0.025309768 0.061018165 -0.019134833 0.008082169 0.033643354 0.005386671
0.061155874 0.046065073 -0.026096432 0.030712863 0.015236304 -0.086398505 -0.006033789 -0.027451625
-0.03199271 0.06155932 0.00509398 0.016381325 0.039680153 0.03156675 0.02029529 0.028910179
-0.0032692624 -0.02618699 -0.017144278 -0.08866276 -0.05069261 -0.056429617 -0.016535547 0.0014747112
-0.06959696 0.019477554 0.036935512 -0.0044501615 -0.0057563586 0.060424786 -0.03500891 0.01986925
-0.042110443 -0.047795087 -0.015296515 0.0542986 -0.005510233 0.03438218 0.10419333 0.02586536
0.008246197 -0.0057716076 -0.013856877 0.019708782 0.017794546 -0.0039625517 0.01053489 0.03354466
-0.029682258 -0.053524166 0.03479587 0.058263145 0.05040808 -0.032180917 0.015187771 0.02630635
0.079148605 -0.00061372976 0.03576006 0.12315325 0.024377504 0.003281987 0.057774276 -0.013353301
0.12874104 0.043541826 -0.0019096477 0.027252406 0.098985516 0.04554716 0.054478314 0.030642942
-0.011598219 -0.0098673925 0.02889349 0.02952569 -0.05709836 0.009054872 0.03354636 0.006890474
-0.02112962 0.039843254 -0.008992079 0.017439 -0.006196306 -0.021986065 0.0202072 0.060569968
-0.07327482 0.0020447075 0.04483651 -0.015134961 0.009192613 0.052901577 -0.006231309 -0.04927509
-0.01859018 -0.074875966 -0.08045799 0.015460679 0.031509865 0.0603974 0.006314902 -0.016986856
0.036205065 0.048708223 0.0052785953 -0.030674594 0.02609221 0.014931528 0.046469737 0.06415766
-0.014525819 0.021353815 0.06132493 0.018005753 -0.005916845 0.028452849 -0.029818268 -0.0025559692
0.06368868 -0.059455767 0.00075056305 0.05329116 -0.026992165 -0.019926785 -0.0109806955 -0.08194616
-0.00037855745 -0.014708418 -0.066779815 0.007882193 0.011200391 -0.03388529 -0.06486338 -0.05068382
0.008107425 -0.0037265013 -0.04308711 -0.011121153 -0.044210926 -0.02530156 -0.030322831 -0.028262025
0.023307798 -0.14301093 -0.0015190917 0.0077216253 -0.012735231 0.008683595 -0.021527767 0.011698033
-0.014512266 -0.04115149 -0.03388192 -0.048018206 0.014961674 -0.014714064 -0.0544536 -0.057693142
0.014914634 -0.04472827 0.0037622591 0.005239556 0.030144805 0.028617492 0.015772369 0.05423352
0.005220197 0.046950147 -0.013610939 -0.031139418 0.016592832 -0.007314053 -0.040443506 0.03842114
0.034859873 -0.038067143 0.022992527 -0.01676472 -0.023580922 -0.06174444 -0.027606115 0.03330342
-0.042624492 0.033535026 -0.0178324 0.008411131 -0.05744175 -0.06641313 -0.0088538015 0.031413134
0.020936381 0.049730793 0.0022215573 -0.011243779 0.035220016 -0.015519417 -0.09846798 -0.0050116503
-0.011826243 0.0064742933 0.01699106 0.0027178621 -0.028144203 0.03678093 -0.06521151 -0.051803548
0.019887375 0.039930917 -0.041037295 0.039595768 -0.014536492 -0.07776713 0.05260406 0.0013777361
-0.027980167 0.042783424 -0.0010132013 -0.029400019 0.04190519 0.018698063 0.015870033 0.013162711
0.008970158 -0.012713522 -0.046748534 0.054200664 -0.008868717 0.007100948 0.028756648 -0.027341394
0.0034134097 0.0049804626 -0.04072363 -0.04705582 -0.021335635 0.046558637 0.008616147 0.037208084
-0.010183236 -0.051742304 -0.026541466 -0.013332389 -0.0357248 -0.02619416 0.069063224 0.015243418

dc1.0.bias f4 [32]
00000000: ac18 f63b f23f 803d da8f d3bc e704 8dbc
00000010: f130 853c 7c77 1e3a 7b67 18bc 66f0 c33a
00000020: ba33 8b3d 343b 203d 69c6 6cba 33ef ffba
00000030: a91a 27bd f66c 1ebd e1a2 f8bc 74c8 11bc
00000040: 1701 293d 2537 9f3c 8a86 923b 6541 203d
00000050: 1442 dcbc d531 083c 0b10 87bc 8c96 16bd
00000060: a583 ce3c 94be 02bc c6ff 4f3b 3b87 46bd
00000070: 1f75 273c da91 303c 3d7e e03c d078 163c
0.0075102653 0.062621966 -0.02582543 -0.017214252 0.016258689 0.0006045026 -0.009302015 0.0014948964
0.067969754 0.03911896 -0.0009032251 -0.0019526243 -0.04079691 -0.038678132 -0.030351104 -0.008897889
0.041260805 0.019435475 0.0044716047 0.039124865 -0.026886977 0.008312662 -0.016487142 -0.036764666
0.025209257 -0.007980008 0.0031738146 -0.04846881 0.010220795 0.010776961 0.027403945 0.009184077

dc2.0.weight f4 [32, 32, 3, 3, 3]
00000000: 8581 993a 0bbb 09bd 3346 a8ba 82d9 143c
00000010: 420a 423d e9de 1c3d 0a80 593c 115c debc
00000020: 3384 f33b 3ffd 67bd ec31 0cbe 4f71 82bd
00000030: d8db bf3b b8cc 03bd d2bf 84bc 9f17 02bd
00000040: d212 a1bc 5c84 a43c d5f7 2fbc ad2a b4bd
00000050: 3039 403d 896e 493d 56fd 84bd a28a d2bc
00000060: 2d93 7e39 dd02 a13c 29e2 9b3b fbd8 ac3b
00000070: 9d4c 273d 1859 42bb 15a2 c6bc b797 ba3c
00000080: 770b 473c 2991 053d d444 2bbd f5c5 2ebd
00000090: fcd4 34bd 79f6 1f3d a757 26bd 40ab a9bd
000000a0: cef1 b1bc ae81 8e3c 175f e4bc c17f 05bd
000000b0: 06e9 b13c 1f77 ecbb cec1 24bd 9d29 6dbd
000000c0: a028 9fbc d467 a0bc 8f3e ca3c 5493 ed3a
000000d0: e991 f53c 00fc 843c 39f8 933b 013b b63c
000000e0: e3ae fe3c bc9a 5dbd 62af f5bc 69ab 67ba
000000f0: a7f4 dfbc f4a7 59bd 0d19 b1bd b4da fc3c
00000100: 54a6 65bd 2e00 42bd 364c e73b e1e3 773d
00000110: 4381 29bd 8655 bf3d 1075 d13d 0a75 40bd
00000120: e880 d03c 3508 dfbc 697a 50bd 071d 293d
00000130: 8832 903c 2ace 2fbd 5128 ae3c be42 c639
00000140: fd0c 00be 5ee3 87bd d231 2abc e727 903d
00000150: d851 633d 8b93 d0bc 2cc3 8d3c e975 30bc
00000160: 1d3c 413a 7f73 2a3b 6104 1fbc dc65 433c
00000170: 7c29 57bd 0784 0f3c 7518 99bd 3b13 533c
00000180: e8bd fabc 03b5 63bd 4915 46bd 48ec 03b7
00000190: f3d2 8a3d 2d48 83bd c940 80bd 05a5 adbc
000001a0: b7f7 bebc ac8b bcb9 3430 903c b54e 20bd
000001b0: addc f9bc d1dc 35bd 0d28 61bd 14fe 15bb
000001c0: 14ec a73d cdc3 37bd 9ba1 72bd 584a 34bc
000001d0: e4b6 953c 5e25 473d 5326 a2bc 3ee7 5b3d
000001e0: 300a 623d 4a68 183d 5d04 7a3c 408b a9bc
000001f0: fee3 c83b f356 bbbc dccf 683c de6c adbc
00000200: 4f46 7b3c 2084 d33d 5ded 563d 8bab 86bb
00000210: c080 7fbd 425c 1fbd 8e86 47bd d59b a3bc
00000220: 286e c23a b4dc 2f3d cd1d 653c fd0d 3dbd
00000230: 89a5 e3bc 4500 013d 9722 e23c 63eb f63b
00000240: cdc0 ce39 acfd be3c 16db f93c 6285 2b3d
00000250: 281d 663c 1069 7a3d df16 353c 9d8a 183c
00000260: 63b0 343d 459b c63b 969c 9f3c 197a 92bd
00000270: ce3e 203d adba 9f3d 55d6 04bb d63a f43c
00000280: 9d4c 513d 5620 07bd 043a b53b 9490 36bc
00000290: 7209 a2bc dde3 10bd 7b97 82bc e759 7abb
000002a0: 98ca c3bb 94c3 17bd 4068 1a3c 9a4f 413d
000002b0: 3333 843d e94d 573d ad29 0fbd 09a8 1d3e
000002c0: e8fe c13d 993d 723d 7d5e c03d 0825 833c
000002d0: 7583 903d e4c6 433d 24f6 513d c7d4 213d
000002e0: 3287 fe3d dd56 cb3b 3881 393d 9dcd 72bc
000002f0: 8eaa 813c 6f7a 0d3c b525 253c 9122 513c
00000300: 8f16 04bd b1b0 95bd 06db 0abd 8fda e0bb
00000310: f251 57bd 840f 633d 6cb0 0dbd 1168 2abd
00000320: e4d4 57bc e4b3 6ebd dd7d 30bd 2be8 66bd
00000330: 34f5 2fbd 7263 3dbb 6e95 593c f9f4 46bd
00000340: cb71 18bd 7d5e bbbc 21cb e0bc 2b68 223d
00000350: 5591 9fbc 2d9c 7b3d de3a 39bd be63 efbb
00000360: ca74 5b3d 8c92 883d 0f0e e43c 5c4c 523d
00000370: c6fd b3bb 8fff a73b 5836 fdb6 702d 0c3d
00000380: 84d7 d63c 58fe a13d a80a 6f3d 333b e83c
00000390: 88be ae3c f6a7 813d 2445 6d3d 6320 3b3d
000003a0: 04d1 d93d 9508 863d 467a 153d 9840 4f3d
000003b0: c84d 8d3d e643 383c c3b6 bb3c d652 e13a
000003c0: 62a6 b73c 0b84 c23c 9ac2 3dbb 8d47 253d
000003d0: 0753 95bb ce7d 153d 384b 80bc 475e 803d
000003e0: f2aa ffbb 8462 b1bd 6f61 923d 7d9e 56bc
000003f0: 8173 383d 2edc 633b f3cb d3bb a045 503d
0.0011711573 -0.033625644 -0.0012838304 0.009085061 0.047373064 0.03829852 0.013275156 -0.02714351
0.007431531 -0.056638 -0.13690919 -0.06369268 0.005855065 -0.032177657 -0.016204748 -0.031760808
-0.019662295 0.020082645 -0.01074024 -0.08797202 0.04692954 0.04917768 -0.064936325 -0.02570087
0.00024278155 0.019654686 0.004757185 0.0052748895 0.04084455 -0.0029655155 -0.024247209 0.022777421
0.0121487295 0.03260914 -0.041813686 -0.042669255 -0.04414843 0.039053414 -0.040610936 -0.082846165
-0.021721747 0.01739582 -0.027877374 -0.03259254 0.02171756 -0.007216349 -0.04022389 -0.057901014
-0.019428551 -0.01958076 0.024688033 0.0018125572 0.029976802 0.016233444 0.0045156744 0.022244932
0.031089252 -0.054102644 -0.029990856 -0.0008837493 -0.027338339 -0.05313869 -0.08647356 0.030866005
-0.056066826 -0.047363453 0.0070586456 0.060520057 -0.04138304 0.09342484 0.10227406 -0.046986617
0.025452092 -0.027225593 -0.05089799 0.04128745 0.01760222 -0.042921223 0.021259459 0.0003781523
-0.12504955 -0.06635164 -0.010387855 0.07038861 0.055497974 -0.025460979 0.01730498 -0.0107702995
0.00073713233 0.0026008782 -0.009705634 0.011926141 -0.052529797 0.008759505 -0.07475368 0.012883003
-0.030608132 -0.055592548 -0.048360143 -7.863222e-06 0.067785166 -0.06410251 -0.06262357 -0.021196852
-0.023311479 -0.00035962218 0.01760111 -0.03913756 -0.030500734 -0.04440004 -0.054969836 -0.0022887038
0.08199325 -0.044864465 -0.05923615 -0.011004053 0.018275686 0.04861962 -0.019793665 0.053687327
0.055185497 0.037208833 0.015259829 -0.020696282 0.0061306944 -0.022868609 0.014209714 -0.021170076
0.015336587 0.10327935 0.05247246 -0.004109805 -0.062378645 -0.038906343 -0.048712306 -0.019971767
0.0014833855 0.04293509 0.013984156 -0.04615592 -0.027788894 0.031494398 0.027604384 0.0075353845
0.0003943503 0.02331432 0.030499976 0.04187525 0.014045037 0.06113535 0.011052816 0.009310392
0.044113528 0.00606099 0.019483846 -0.071521945 0.039122395 0.077992775 -0.0020269353 0.029813211
0.051098455 -0.032989822 0.0055305976 -0.011142869 -0.019779895 -0.035373557 -0.015941372 -0.0038200559
-0.005975079 -0.037051752 0.009424269 0.047195055 0.06455078 0.052564535 -0.034951854 0.15396132
0.09472448 0.059140775 0.09393022 0.016008869 0.070563234 0.0477971 0.05126013 0.03950956
0.1242813 0.0062054233 0.04528925 -0.01481953 0.015828397 0.0086351475 0.010079791 0.012764589
-0.032248076 -0.07309092 -0.033900283 -0.0068619917 -0.052568384 0.05543472 -0.034592077 -0.04160315
-0.013173316 -0.058277026 -0.043088783 -0.056373756 -0.042958453 -0.0028898385 0.013280256 -0.048573468
-0.037217896 -0.022872204 -0.02744061 0.039650124 -0.01947848 0.061428238 -0.045222156 -0.0073055914
0.053578176 0.066685766 0.027838735 0.051342353 -0.0054928986 0.0051269005 -7.546314e-06 0.03422302
0.026225813 0.0790984 0.058359772 0.02834854 0.021331087 0.06330864 0.057927266 0.045685183
0.1063557 0.06544606 0.036493562 0.05059871 0.06899601 0.011246657 0.022914296 0.0017190825
0.022418205 0.023744604 -0.0028955103 0.04035144 -0.004557017 0.03649693 -0.015660867 0.06267982
-0.0078023607 -0.086613685 0.0714749 -0.01309931 0.045032028 0.0034768688 -0.0064635216 0.05084765

dc2.0.bias f4 [32]
00000000: 1890 a8bc 21ab 813d 0e51 aebc 3bd4 733d
00000010: bb5f 2ebc 323f 963b bcd9 2fbc cc3d 6bbc
00000020: 764b 013d bcad de3c 674a 0e3b 556e bbbb
00000030: c1fc 443d 0164 663c 2caa 0abd d189 3abc
00000040: dfd0 9fbc 7e4a 943c 7128 293c 8363 043b
00000050: 4d76 1e3d ef62 d8bc 0d29 81bb 447b 1d3b
00000060: c31b 983d 2e1e a83c 2caf 05bc bc1c 863b
00000070: 0d51 b6bc 7c0e 763c 8954 cf3c e961 c23a
-0.020576522 0.063314684 -0.021278884 0.05952857 -0.010642941 0.00458517 -0.010733064 -0.014357995
0.031566106 0.027182452 0.0021711828 -0.0057199397 0.048092607 0.014061929 -0.033853695 -0.011385397
-0.019508777 0.018101927 0.010324583 0.0020200915 0.03868704 -0.026414363 -0.003941661 0.002402977
0.0742717 0.020522203 -0.00815944 0.004092781 -0.022255445 0.015018102 0.025308864 0.0014830205

dc3.0.weight f4 [24, 30, 3, 3, 3]
00000000: 8f71 1a3c e973 9e3c 863c 1ebd 0a21 243d
00000010: 7de4 7ebc 985c ecbc 509b 93bb 7239 86bc
00000020: caf3 0cbd 8832 9dbb 8d63 0fbb 673b 793b
00000030: 558c 31bd 6a37 fa3b daa6 193d 9f4d 55bc
00000040: 5591 7abd 0699 f1bc dd2f b5bc 6f1e a2bc
00000050: 7977 c4bb 937b 813c ee82 3ebd e9e3 c73a
00000060: 0fe9 23bc d47c b0bb b183 8c3c ddf5 0dbc
00000070: e4f9 873d 9a45 583d f952 983d 3927 c43d
00000080: 423f 703c 83c1 ed3b 7dd8 9bbc d0a3 24bb
00000090: 335b 05bc a36d 803b b99c c53c 3df9 b03d
000000a0: 0b6b 243d 8eba 773d f139 1c3d 893a bf3d
000000b0: f884 053e a515 ccbc 4270 63bc 0bed e33c
000000c0: b9eb 4a3d ec99 c03d ccc6 383d b3e2 0abc
000000d0: ef13 a53d 76df 273d 5bb2 e23b e48b b1bc
000000e0: af16 9fbc 019a 7cbd b6a4 8dbd aa9b ac3b
000000f0: 2a8b 82bc 6ed8 04bd 9e56 3d3c 6603 633d
00000100: a2c2 a23c febc 4cbd 62cb 75bd e983 01be
00000110: 500c 29bd 7e90 313c 9c00 e23b 333b df3c
00000120: 6627 653d 3a9d f83c e3fb 7ebd b1e0 123d
00000130: c856 3dbd f705 7cbd de55 393d 24c8 89bc
00000140: 8e09 1fbd 2972 2f3d 933d f63d 647a ff3c
00000150: 685f ae3d b0f0 db3d 32cb a83b 4a47 c2bb
00000160: 31a8 6f3d febb 203d df23 c93d c708 b03d
00000170: 0821 7a3d 584d 9b3d 7c0f 123e 29b8 4e3d
00000180: 0356 403d c160 903d 654b 21bb 80c9 9a3c
00000190: 2aa1 533d d980 983b 8590 173d 3b91 713d
000001a0: 6609 043d 9f1b febb 2976 ef3c ceb7 13bc
000001b0: b7dd c6bd 07a6 47bd 7e0b bebc 9bbd a8bc
000001c0: 6701 48bd 488e 1dbd 85f3 e43c 584a 4e3c
000001d0: 5592 023b 5b2c 54bd 6574 98bd 6b2a 9bbd
000001e0: d1a3 57bd f7e7 6ebd bcdd e0bc e41a f63a
000001f0: 1e2f 48bc 7e12 ce3b 1e8d 3fbd 22ab 3abd
00000200: 8b1c edbc 3b95 c83b 2f5f a4bd 7548 71bd
00000210: bc3b fcb8 13e3 f5bc c674 473b ac6f 65bc
00000220: 5e67 e9bc 6bf6 803d 3bfc 8a3b 251a 903c
00000230: d965 b83d 1731 483d cdc7 0e3d bc5b a03d
00000240: 40bc 57bc 5f0b eebc d171 1cbd 8cbf 2e3d
00000250: aa1d c2bc a4d1 61b9 cbcb 0b3d f4f2 2b3d
00000260: 2884 3c3d ff57 80bc 35e4 41bd dc18 153d
00000270: 2b14 f7bc 795b de3b 3e09 85bd 16c5 cd3c
00000280: 0f8a d3bc 901e f03a a4b1 1c3c e52d 533d
00000290: b0e2 ce3c a788 bbbb 6f19 173d fc9c 373d
000002a0: cd38 063d e04c 1f3d 2a29 8abd 622c 8b3d
000002b0: f76d 733d a7e3 f03d 5d4c 623b 35e5 cb3d
000002c0: ac89 893d 434f c63c dfd7 5d3b 58ca 463d
000002d0: be12 053d e5d3 833d fe54 b23b d3c5 513c
000002e0: 1cbf 143e e271 9f3d 9573 283d cdbb 873d
000002f0: f283 9abc df59 913d 5a3d 453b 72b6 943c
00000300: 6a1c 573d 53ee 523d 8b07 6dbc 2f63 fdbb
00000310: f377 423c 98af 323d 85fd 6ebc aebd 45bc
00000320: 4dd0 8bbc ff3b 6d3d fb08 323c ab11 893b
00000330: e2a5 823c a91a 9cbd 44b2 433d abf5 2a3c
00000340: 3109 f83c 49e0 543d e696 17bd 7c50 993b
00000350: f776 b8bd 6301 b8bc 9749 84bc 8245 fbbc
00000360: 8cd7 003c 140d 0a3b e06c 8d3c 4d46 9f3d
00000370: dd86 d33d 593d fcbb 88f7 233d 672a da3c
00000380: 2969 46bd 5568 56bc 2389 c23c cd7a 45bd
00000390: 54c1 e0bb 1ba1 8dbd 5649 ffbc 6d76 fe3c
000003a0: a5d5 e83c b556 2cbd 82bc 103d 5736 e63b
000003b0: e9ef 65bd 86fb 123d 99fa eabb a619 39bd
000003c0: c7a3 2e3d 9c9e aabd 8845 9bbd 4f03 ae3c
000003d0: 6227 573c 33d5 643c 5486 823d 387a ba3d
000003e0: 2da0 913d 0832 a43d aed0 3b3d 6391 403c
000003f0: 353e 1a3d 095f 893d 566f f33c e951 603d
0.009426489 0.01934238 -0.03863194 0.04007057 -0.015557406 -0.028852746 -0.0045045987 -0.016384814
-0.034412183 -0.0047972836 -0.0021879405 0.0038029791 -0.04334672 0.0076360004 0.037512638 -0.013018995
-0.061173756 -0.029491913 -0.02211755 -0.019789902 -0.0059956876 0.015805995 -0.046511583 0.0015250418
-0.010004296 -0.0053859744 0.01715264 -0.008664575 0.0663946 0.052800752 0.07437701 0.09577794
0.014663519 0.0072557344 -0.019024128 -0.0025122054 -0.008139419 0.0039193197 0.024122583 0.086412884
0.040141147 0.060480647 0.038141195 0.093373366 0.13039005 -0.024912665 -0.013881745 0.027822992
0.04954121 0.09404358 0.045111462 -0.008476901 0.08060443 0.040984593 0.0069182343 -0.02167315
-0.019419996 -0.061670307 -0.06916182 0.00526758 -0.0159355 -0.032432966 0.011556296 0.055423163
0.019868199 -0.049984924 -0.060008414 -0.12647976 -0.041271508 0.010837672 0.0068970453 0.027249908
0.055945776 0.030348409 -0.062251937 0.035858814 -0.04622534 -0.061529126 0.045247905 -0.016819067
-0.03882747 0.04283348 0.12023463 0.03118629 0.08514291 0.10739267 0.005151176 -0.0059289085
0.05851001 0.039241783 0.09821295 0.08595424 0.061066657 0.075831115 0.1426372 0.050468598
0.046957027 0.07049704 -0.002461159 0.01889491 0.05166737 0.0046540317 0.03700306 0.058976393
0.032235526 -0.0077547575 0.029231148 -0.00901599 -0.097102575 -0.04874232 -0.02319884 -0.020598223
-0.048829462 -0.038465768 0.02794815 0.012590967 0.0019923646 -0.051800113 -0.074440755 -0.0757645
-0.052646462 -0.058326688 -0.027449481 0.0018776325 -0.012218265 0.0062888255 -0.04676544 -0.04557336
-0.028944274 0.0061213053 -0.08025967 -0.05890699 -0.00012027423 -0.030015504 0.0030434593 -0.014003675
-0.028491672 0.062970005 0.004241494 0.017590592 0.09003801 0.04887494 0.034858514 0.07829997
-0.013167441 -0.029058157 -0.03819448 0.042663142 -0.023695786 -0.0002153577 0.0341299 0.041979745
0.04602447 -0.01566696 -0.047336776 0.03640066 -0.030160984 0.0067858067 -0.064959034 0.025118392
-0.025822667 0.0018319655 0.009563837 0.05155744 0.025254577 -0.0057230773 0.03688949 0.044827446
0.032769013 0.038891673 -0.06746133 0.06795575 0.059431043 0.11762171 0.003453038 0.09955827
0.06715712 0.024207717 0.0033850593 0.048532814 0.032488577 0.064369 0.0054422608 0.012803513
0.14526027 0.07785393 0.041125853 0.06627617 -0.018861745 0.0709722 0.0030096383 0.018153403
0.052517332 0.051496815 -0.01446713 -0.007732771 0.011869418 0.04362449 -0.014586811 -0.012069149
-0.017067099 0.057918545 0.010866399 0.0041830144 0.01594824 -0.076222725 0.04777743 0.010434548
0.03027782 0.051971707 -0.037009142 0.004678784 -0.09007066 -0.022461599 -0.016148372 -0.030672792
0.00786389 0.0021064924 0.01726383 0.07777081 0.103284575 -0.007697743 0.040030986 0.026631547
-0.048440132 -0.013086398 0.023747033 -0.048212815 -0.006858984 -0.06915494 -0.031162899 0.03106233
0.028422186 -0.042074878 0.035336025 0.007025521 -0.056137 0.035884403 -0.007170987 -0.045190476
0.04263666 -0.083310336 -0.075816214 0.021241812 0.013131948 0.013966846 0.06373277 0.091053426
0.07110629 0.08017355 0.04585331 0.011753413 0.03765698 0.0670758 0.029716175 0.054765616

dc3.0.bias f4 [24]
00000000: b970 ff39 5dd6 c43b 83c0 2fbd f3e9 5cbc
00000010: aa1a a4bc 3f6f 3b3b 73a9 51bc 4d9e d9bc
00000020: 59b7 203d e2b1 0bbd 6f6c 203d 8b0e 863c
00000030: e839 7c3d e549 be3b b433 5b3c 4589 743d
00000040: e237 dc3d b1b1 5cbc 1966 023d 2ca5 ce3c
00000050: cee6 0f3b 6051 913c d5dd 3dbc e71f a53d
0.00048721375 0.0060069994 -0.042908203 -0.013483512 -0.020032246 0.0028600243 -0.0127967475 -0.026564742
0.039237354 -0.03410519 0.03916591 0.016364357 0.06157866 0.0058071488 0.013379026 0.059701223
0.10752846 -0.013470099 0.03183565 0.025225244 0.0021957639 0.017738998 -0.011588533 0.080627255

dc4.0.weight f4 [24, 24, 3, 3, 3]
00000000: bf3a 9abd 3956 4fbd f92e 9bbd 2295 4ebb
00000010: 040d c5bd dd32 04bd a1a6 03bd d383 5c3d
00000020: 304b d1bd a9bd dc3d c38c 803c 54ff 8fbc
00000030: e082 803d a3b7 8e3c a266 673c 5db0 1cbc
00000040: 0ae5 c63c 8754 98bd f0cb be3c 4f22 4c3d
00000050: 2418 253d f948 44bd 8851 8b3c fbbd 71bd
00000060: ec4c 4fbd c5b6 c8bc 3180 17bc 77db 9abd
00000070: 1faf a4bc fcc6 2ebd 8a01 68bc 700d 87bd
00000080: 9cdc 86bc 22d4 313c 55f6 8bbc 7418 8cbd
00000090: 46c0 3fbc 21df a0bd cd58 99bd 52dc 04bd
000000a0: 82f6 fdbc 7b6a 91bd 1766 4abc 69b6 4dbd
000000b0: b254 b6bd 5d9d 193d d913 3abb bc57 983b
000000c0: a9ed 65bb 9c76 353d 0c2e 81bd 187c 663c
000000d0: e479 a33c 8047 5fbc e9e1 493d 358a 99bd
000000e0: 39c1 afbd e324 133d 1909 cd3d c589 3abd
000000f0: 29a9 1bbe 7df6 92bd 0605 53bc 58e0 6e3d
00000100: 70b9 dcbc f3ea 373c 6a73 d0bd e327 d7bd
00000110: b363 a9bb 1d5e 22bc 1e26 c2bd 5b35 743c
00000120: 5446 7abb 6956 093b da42 423c b898 2abb
00000130: 7b8f 7abd 1580 ba3c d5b3 d33c 4b65 933d
00000140: fe2c 753d d6ab cabd c951 5f3d 923a 97bc
00000150: 6eff 9b3d 77ea 1f3d 90a6 b53d 94e7 203d
00000160: 8e6f a53d fe1c 353d 5cab 9a3b f7a3 3dbc
00000170: 0f74 42bb e69e 733d 8b8c c03d 1dc2 b1bc
00000180: 42b4 e43c b8f8 7d3e 83b9 863d c364 1f3d
00000190: 0ba2 e73c 8931 51bd 48af 133d dc8f 1c3e
000001a0: f7d1 7a3c 5688 6f3d bf17 993d 975d 8c3d
000001b0: 4771 2abe 54d4 74be 7bb8 81bd 6856 193e
000001c0: 559f bc3d 7878 d7bb 393e d7bd 809f b53d
000001d0: 9343 9ebd 400d 42bb 8de7 1dbe c540 11be
000001e0: e753 b43b d7c5 90be 17e6 abbb 9631 88be
000001f0: 7020 dcbd 9c4b 2f3e 9380 4ebc 5e6b 7d3e
00000200: 2b2e 46bd e852 d7bd eff4 cebd 34a3 71be
00000210: d65c 593d 78c2 75bd 5021 303c 1575 2ebd
00000220: 2d43 6a3d 427c 99bd 6501 27bd bf74 6e3d
00000230: e765 003d 0be7 833b 685b 68bc 255b aebb
00000240: 3884 2fbc 4067 853d 82ae a43c adfd 56ba
00000250: e302 9fbd 4e0d 61bc f034 a5bd 0ebc 73bc
00000260: f415 17bd 6bda b03c a9f9 103d f8d6 dc3c
00000270: 993e 6f3d da8b 3d3e fc2a 54bd 742f 10be
00000280: 1428 993c ef06 943d cdaa 2cbe 2410 13be
00000290: 2524 68bd 42bc b8bd 7380 acbd 2a8c 1fbe
000002a0: df57 29be 1722 3bbe 80c4 2bbe 01ad 3abe
000002b0: 5000 5dbe 2434 8cbe c18c 00be 9c71 b73d
000002c0: 579c 87be 7aae 68be c784 87be 61c1 e2bd
000002d0: 9552 70bd 030f 94bd 2eb7 9fbd e450 f1bd
000002e0: 1bfd 09be 53e7 90bd 5743 02be 7d05 31be
000002f0: 7162 86be 682d 953c 0839 efbc 3962 ebba
00000300: 32eb 1bbb 6d70 b83d c459 86bc 6d57 52bc
00000310: 0829 a8bc 6cb8 9dbd ce09 fb3d efc8 b53c
00000320: f906 9fbd d7da ddbc 3733 253e b724 aabc
00000330: 0108 423d 0114 233b 9922 993c b034 8cbc
00000340: a5cc 953c 5182 a33b 5711 01bd e308 c73d
00000350: ea22 16bc 0927 f13c 2bdf dcbb 8151 27bd
00000360: 60ad ebbb d8dc f23c cf9e 6e3d 218c bf3c
00000370: 2ba1 0c3d 9363 7f3d c788 4a3d ab86 d73c
00000380: 4ce1 6dbc 14e0 dfbd 4133 a5bd cd9a 92bd
00000390: 9a42 8bbd fd84 813d 6e67 b0bd a2af a93b
000003a0: 3471 ccbd b318 1ebc e508 12bd d806 963b
000003b0: 209f 37bd 0965 d3bc 3993 103d e4f3 1cbd
000003c0: 958b c3bb 0db2 8cbc 07f0 03bd 75d6 103b
000003d0: aff5 9f3d a290 0cbc 7d5a 91bc 3538 c13d
000003e0: f1e4 693d 9366 0a3d 998c f23c f73f 983c
000003f0: 85e9 1a3a 0b0c a93d 3473 8cbc 328e dfbc
-0.07530736 -0.050619338 -0.07577319 -0.0031521996 -0.09621623 -0.03227507 -0.03214133 0.053836655
-0.10219419 0.10778362 0.01569212 -0.017577805 0.062749624 0.01742155 0.014123591 -0.009563533
0.024279136 -0.07437997 0.023290604 0.049837407 0.040306225 -0.047921155 0.01700665 -0.05901907
-0.050610468 -0.024501214 -0.009246872 -0.07561391 -0.020103035 -0.042670235 -0.014160523 -0.0659436
-0.016462617 0.010853799 -0.017085234 -0.068406016 -0.011703556 -0.078550585 -0.074876405 -0.032436676
-0.031001333 -0.07100388 -0.012353442 -0.050222788 -0.08902873 0.03750359 -0.0028393178 0.0046491306
-0.0035084283 0.044302568 -0.06307611 0.014067672 0.019955583 -0.013627887 0.04928771 -0.07497064
-0.08581776 0.03592385 0.10011501 -0.045541544 -0.15201248 -0.0717592 -0.012879616 0.05831942
-0.026943892 0.01122545 -0.101782635 -0.10505655 -0.005169356 -0.009910134 -0.094799265 0.014905299
-0.0038188891 0.0020956045 0.011856759 -0.002603097 -0.06117199 0.022766152 0.025842587 0.071970545
0.05985736 -0.09896056 0.054521356 -0.018460546 0.07617079 0.039041962 0.0886966 0.03928335
0.08077918 0.044217102 0.0047201347 -0.011574737 -0.0029671227 0.05947771 0.094018064 -0.021699006
0.027917985 0.2480191 0.06578352 0.038914453 0.02827551 -0.05107263 0.036055833 0.15289253
0.015308849 0.05847963 0.07475232 0.06853788 -0.16644774 -0.23909122 -0.06334015 0.14974368
0.09210078 -0.0065756403 -0.10509915 0.08868313 -0.077277325 -0.0029609948 -0.15420361 -0.14184864
0.005503166 -0.2827594 -0.0052459347 -0.2660033 -0.107483745 0.17118686 -0.012603897 0.24747989
-0.048383873 -0.1051386 -0.10105311 -0.23597413 0.05306705 -0.059999913 0.01075013 -0.042592127
0.05719297 -0.074944034 -0.040772814 0.058216807 0.03134718 0.004025345 -0.014181949 -0.005320924
-0.010712676 0.06513834 0.020102743 -0.0008201253 -0.077642225 -0.013736082 -0.08066738 -0.014876379
-0.03688617 0.021588525 0.035394344 0.026957974 0.058409307 0.1851038 -0.051798806 -0.14080602
0.018695869 0.07227885 -0.1686203 -0.14361626 -0.056675095 -0.09020282 -0.08422937 -0.15580812
-0.16537426 -0.18274723 -0.16774178 -0.18230058 -0.2158215 -0.2738353 -0.12553693 0.08957216
-0.26486465 -0.22722808 -0.2646849 -0.1107204 -0.058672506 -0.07229426 -0.07798611 -0.11783007
-0.13475458 -0.070753716 -0.12721 -0.1728725 -0.2624698 0.018210128 -0.029202 -0.001795835
-0.002379131 0.090058185 -0.016400225 -0.012838227 -0.020527378 -0.07701191 0.122577295 0.02219054
-0.07765002 -0.02708189 0.16132818 -0.02076946 0.047370914 0.002488375 0.018693255 -0.017114967
0.018286059 0.0049899 -0.031510677 0.09718492 -0.009163598 0.029437559 -0.006740471 -0.040849213
-0.007192299 0.029646322 0.05825692 0.023382248 0.03433339 0.06235082 0.049446847 0.026309332
-0.014519047 -0.109314114 -0.080664165 -0.07158432 -0.067998126 0.063241936 -0.08613478 0.0051784078
-0.09982529 -0.009649443 -0.035653014 0.0045784526 -0.044829488 -0.025805013 0.035296652 -0.03831853
-0.005967567 -0.017174745 -0.03221133 0.0022100483 0.07810532 -0.008579405 -0.017743343 0.09434549
0.0571031 0.03378923 0.029608058 0.018585188 0.0005909431 0.0825425 -0.017144777 -0.027289484

dc4.0.bias f4 [24]
00000000: 5c6e b9bc c7c5 043d 1ad3 5e3d 6a8d 393d
00000010: fa15 483b e9e3 0d3d eeeb 853d bc1d 1f3c
00000020: 91b6 353d 969e 4d3c 50c9 24bd 6872 003d
00000030: d9a2 13bd 5a31 86bd cbf3 58bd 9d94 3e3d
00000040: a98b 6d3c d7c2 eebb 6000 fe3b dbe4 f63d
00000050: d50b 3a3c bc0e 963d 8a2e 413d ef0f 193b
-0.022635631 0.032415178 0.05440054 0.04530088 0.0030530677 0.03464118 0.06539141 0.009711679
0.044363562 0.012550017 -0.04023105 0.031359106 -0.036043976 -0.06552382 -0.052966874 0.046528447
0.01449863 -0.0072864103 0.0077515095 0.120553695 0.01135536 0.07327029 0.047163524 0.0023355444

dc5.0.weight f4 [16, 22, 3, 3, 3]
00000000: 08d1 30bd b4a7 8abd e1ce cabc 577b 9a3b
00000010: d908 01bc c330 75bd 1293 933c 2341 193b
00000020: 4e5e 663d 6922 c93a 5573 bcbd da6d 97bd
00000030: af58 473d 55f5 45bd f530 1cbd 99aa e03c
00000040: 635e 35bc 6b8e 883c ef00 043d 2f01 53bd
00000050: 6d55 4abd 101c 3f3d a3bc 04bd bd42 03bd
00000060: 42bc e2bc 8b31 bf3c bc71 973c 59be 9abb
00000070: 48ed cfbd 4583 e4bd 20f8 4d3d 3a03 2a3b
00000080: c3aa c6bd 9ec2 5bbc 565e 723b e848 9e3c
00000090: 0ff8 85bc bcdc f8bd d8fd 1dbe 2852 49bd
000000a0: 04cc cabd e7bb fabd 113e 8fba b72f 0dbd
000000b0: 2ed0 2d3d 3af1 613c 868b 08be b7d8 d5bd
000000c0: 34e8 823c 76a0 733c 2436 32be 5fcb 88bc
000000d0: bb16 c23c 1855 a5bd c735 f83c 6f03 8cbc
000000e0: fb19 dc3b 42cf 453d 2c70 efbc 40ac 353d
000000f0: 8037 b73d 73e5 4cbb 168a f6bb 36df d3bc
00000100: e47d b23d 53f2 1b3d 1fc7 c93b 014d 113e
00000110: 9116 e93c 8823 953b 85fa 033e 962f 193d
00000120: 8430 65bc ae2d 723d 2512 a63d 9db8 623d
00000130: 0de1 d13c 8483 a63d cb9f 473d f54a 7b3c
00000140: c764 233d 5bd0 893c 4703 5cbd 2a9a 36bd
00000150: 1551 823d 5fa2 0abd 886b 03bd 6b4b 2b3c
00000160: e022 a5bc 123f 50bb 4d0e 1cbd 44c2 09bd
00000170: 7362 5fbd dcca 79bc ecd9 303d 3793 a7bd
00000180: e4cc 20bd 397d 813d ee65 00bd a14e 9abc
00000190: ae51 22bd 8648 adbd 5f7e 063c 1317 3a3d
000001a0: 24dd 913c 5a5e ad3c 58c2 e33d 037a d8bc
000001b0: 80e1 bd3c 8f72 de3a 5888 6d3d 34ff 6dbc
000001c0: cf50 a4bd 3926 16bc 5abe 80bd 625a d1bd
000001d0: 8921 79bd 492a adbd 4a2f a43c 80df 183e
000001e0: 696b c9bd 8388 babd 74eb f73c f0be 88bd
000001f0: 1d0d cbbd 50f9 0dbd 7f61 8f3d 7c46 e43a
00000200: d82f 09bd 866b 92bd aad2 523d 2707 e3bb
00000210: 0d43 30bd a18d 28bd ed63 11bd cecc c33b
00000220: c1ff ae3c e33b 8fbd ba89 3d3d 1b41 013d
00000230: fc6e 0e3d a6f6 763c 0f69 c83c c4e3 0a3d
00000240: 8541 913d a46f 0c3c 90c3 32bc 2e95 933d
00000250: ce60 b6bc 02f2 09bc 4bc7 353d 1587 813c
00000260: 5da0 dbbc e3cf 033d b4b5 7bbb 4732 53bd
00000270: fef2 e6bc a475 033d 7775 febc cad0 a13c
00000280: ccfe 583c 06a5 523c 9294 c03d 0982 bbbd
00000290: 3c94 6cbd 247b 0a3d 490c 543d ead5 44bd
000002a0: 7096 5c3d aa1b 203d 3e76 a9bc d714 ea3c
000002b0: 2957 433d 4a40 b4bc ed7a d33d d2e6 193d
000002c0: 2cb3 31bc 6dbd c43c d747 943d a52a 0c3d
000002d0: d4c9 8a3d eaeb c23d 2123 393d 3dad 673d
000002e0: 7040 be3d e19b 073e 4742 6dbc 7041 da3c
000002f0: dc10 353d 0385 00bb 83c6 7ebb f8e5 d0bb
00000300: d895 50bd 3175 0abc e34d 90bc f162 86bd
00000310: f2b4 dfbc e4d8 99bb 5ed0 283d 7b11 adbc
00000320: afab 2b3d bedf 833c 6fd3 3ebd f471 2dbd
00000330: 141b 42bc 6167 08bd ef74 33bd aac4 48bc
00000340: 97e1 303b f900 1b3c 8245 32bd 93ef cabc
00000350: 4f8d 273c 8906 5ebd f131 50bd 65bf 9cbb
00000360: 50f1 08bc 9843 9bbc 8f58 753e a912 82bd
00000370: d953 d2bd 1d87 d03d c66e 733b 817d f8bd
00000380: 4256 413d 15ae 57be d4e8 9c3d d8f6 0a3e
00000390: ebb5 a5be 696e 463d 6b38 233d e36c 41be
000003a0: b0af 843c 39f3 dfbd e94b c23b b773 37be
000003b0: 4c1d 3a3e f95f 7cbd fa23 64be 7c2c 333e
000003c0: acc1 58bc 9136 59be e2d5 4f3d 2d49 a83c
000003d0: c5d9 bcbd f03b b53c 5568 afbd fe94 02bd
000003e0: 9957 afbc bcaa c1bd dbc4 8a3b e571 353c
000003f0: 1269 483c e666 0bbe dc01 20be 7502 803d
-0.043168098 -0.06770268 -0.02475685 0.0047144103 -0.007875645 -0.059860956 0.018014465 0.0023384772
0.05624228 0.0015345338 -0.09201685 -0.073939994 0.04866856 -0.04832967 -0.038132627 0.027425097
-0.011069867 0.016669473 0.032227453 -0.0515148 -0.049397875 0.04665762 -0.03240646 -0.03204607
-0.027677659 0.023339054 0.01848685 -0.0047223982 -0.1015268 -0.1115785 0.05028546 0.0025941865
-0.09700539 -0.0134131 0.0036982498 0.019321874 -0.016353635 -0.12151477 -0.15428865 -0.049150616
-0.09902194 -0.12242871 -0.0010928531 -0.034469333 0.042434864 0.013790423 -0.13334474 -0.10441726
0.015979864 0.0148698 -0.17403466 -0.016698537 0.02369248 -0.08072871 0.03029908 -0.017091481
0.0067169643 0.04829336 -0.029228292 0.044353724 0.08946133 -0.0031264692 -0.0075237853 -0.025863271
0.08715418 0.038072895 0.0061577703 0.14189531 0.028453143 0.004551355 0.12888534 0.037398897
-0.013988618 0.059125595 0.081089295 0.055351842 0.025620008 0.08130553 0.048736375 0.015337695
0.03989103 0.016822984 -0.053714063 -0.044580616 0.063631214 -0.033846255 -0.03208497 0.010454993
-0.020158231 -0.0031775874 -0.038099576 -0.03363253 -0.054537248 -0.015246119 0.043176576 -0.08182376
-0.0392579 0.063227125 -0.031347208 -0.018836321 -0.039628677 -0.084610984 0.00820884 0.04543216
0.017805643 0.021163154 0.111210525 -0.026425367 0.023178816 0.0016971397 0.057991356 -0.014526177
-0.080232255 -0.009164386 -0.06286307 -0.10222317 -0.060822997 -0.08455331 0.02004208 0.14929008
-0.0983494 -0.09108069 0.03026364 -0.066770434 -0.099146105 -0.03466159 0.07001018 0.0017416026
-0.033492893 -0.07149415 0.051470436 -0.006928343 -0.043032695 -0.041150693 -0.035495687 0.0059753424
0.021362187 -0.06993844 0.046273924 0.03155623 0.03477381 0.015073454 0.024464158 0.03390862
0.07092575 0.008571539 -0.010910884 0.07206188 -0.022262957 -0.008419516 0.044379514 0.015811482
-0.026809866 0.032180678 -0.0038407864 -0.05156162 -0.02819204 0.032094613 -0.031061871 0.019752879
0.013244342 0.0128567275 0.094033375 -0.091556616 -0.057758555 0.033808842 0.05176953 -0.048055567
0.053854406 0.039088883 -0.020686265 0.02857439 0.047690544 -0.022003312 0.103261806 0.037573643
-0.010845941 0.024016107 0.07240265 0.034220356 0.06776777 0.09517653 0.045199517 0.056561697
0.09289634 0.13243057 -0.014481134 0.026642531 0.04420553 -0.001961053 -0.0038875646 -0.0063750707
-0.050924152 -0.008450792 -0.017615264 -0.0656184 -0.027307961 -0.004695045 0.04121434 -0.0211265
0.041911777 0.0160979 -0.046588358 -0.042345002 -0.011847276 -0.033301715 -0.04381269 -0.01225392
0.002698993 0.009460681 -0.04352332 -0.024772441 0.010226562 -0.05420545 -0.050828878 -0.004783558
-0.008358315 -0.01895313 0.23959564 -0.063512154 -0.10269899 0.10182021 0.0037144884 -0.12133313
0.047201402 -0.21062501 0.07661596 0.13570726 -0.32365355 0.04844514 0.039848726 -0.18889193
0.016197056 -0.10935063 0.0059294594 -0.17915235 0.18175238 -0.061614964 -0.22279349 0.17497438
-0.013229769 -0.21212222 0.050741084 0.020542705 -0.09221224 0.022123307 -0.08564822 -0.03188037
-0.021404075 -0.09456393 0.004234893 0.011074518 0.012232082 -0.13613471 -0.1562571 0.06250469

dc5.0.bias f4 [16]
00000000: 8410 293d a024 0abc cfb5 a8bc 3cb7 d93d
00000010: 35af 1abb 3db7 b7bc 3e91 663c deeb b6bc
00000020: c0ce d03b ab45 32bb 8bc9 fa3c 0df6 8c3d
00000030: 1f4f 813b fa0d 403d bea5 483d a0bd 3b3d
0.041275516 -0.008431584 -0.020594506 0.10630652 -0.0023602967 -0.022426242 0.014072714 -0.022329267
0.006372303 -0.002720217 0.030613681 0.06882868 0.0039461995 0.04688833 0.04898619 0.045835137

dc6.0.weight f4 [16, 16, 3, 3, 3]
00000000: 6bfe 073d 364c aa3d 7f07 513c 8f83 06bd
00000010: cb7f 993d 5821 983c bd6b 953c fb10 7a3d
00000020: 728f 2f3c 7c11 25bd 7d80 ef3c 82e4 85bc
00000030: 5773 0cbd 5f74 1cbc 8bd8 ca3a 23dd 8d3c
00000040: f23a a53d 18a6 73bc 018a 25bd 8256 b3bc
00000050: 4416 0c3c cc0f 8fbd ba0b 403a a7b7 05bd
00000060: 97cd c23c a189 91bc bad1 643b f7be 223d
00000070: 7f6f 3c3d abe8 fcbc 6ed6 5b3d 4272 8cbc
00000080: 73cf 6cbc 0449 9b3d 67be b1bc f3ce a5bc
00000090: 3971 c03c 431c 363d 98fc 543d f82e 05bd
000000a0: 3367 1b3b f6f1 013d 2029 0ebd 4c94 8abd
000000b0: 371d fabc 33ee d8ba 2f8f 2d3c 40cb a93b
000000c0: 91ef 43bc c50b 993c 81f2 14bd 79aa c6bc
000000d0: 737a f23b f825 10bd 196c 993c e35a 343d
000000e0: 928c 57bb e649 043c 491a 4f3d 4e4e aebb
000000f0: 064d 043c f0ed 85bb b75f 21bc 49c4 65bd
00000100: 4c82 55bd 69be 04bd 7f18 ffbd f0c3 a4bc
00000110: 9ce9 2ebb dcce 4d3d 4aaf 223d 0bfe 30bc
00000120: 6f12 82bb a696 ecbc cf30 ffbb b87a 063c
00000130: 6ebf 9f3c 364b e5bb f1ba 2cbc 0e4d 19bd
00000140: 0d27 1b3c a2a3 8a3d 6118 e3bb 6f8a c23c
00000150: d565 643c 9f13 5b3d 553b cc3d fe62 d43d
00000160: 02a5 913d 8ea2 1a3e 41dd 4fbd c0a2 ecbd
00000170: 62cc 953c 898a f0bb a303 383e f5cd 313d
00000180: 1ee8 c73c 226f 993b 72e8 0b3e c490 233d
00000190: 28f6 80bd 7d88 133d 709c d6bc 560a 023e
000001a0: 14e0 70bd aafc b9bc 1c46 4e3d 4cce 123e
000001b0: c6cf 453d c658 b13d 902e dd3d c51d a33d
000001c0: 1d6e c93d 909b bd3d 88fc 133d a48d fd3c
000001d0: 5deb 6e3d 08ea 8bbc 0c6b a23c c8e7 db3d
000001e0: e5be 923c 5281 893d 5a4f be3d 0719 883d
000001f0: c1f9 0f3d e3e0 be3d d277 303d a5fc 99bc
00000200: db46 b13c eb68 74bc 8011 533b 2ca7 243d
00000210: bd41 383d 5c0d 1e3d 463b c73c 2fc7 17be
00000220: e3bb b3bd ce9a cebd bc36 31be ca99 11be
00000230: a7e1 8bbd 5c67 21be 2e04 01be 8679 c8bd
00000240: 7368 29be 285d b3bc bfc6 3abd 0e19 6cbe
00000250: 6c29 f0bd cccc 23bd fec6 e1bd 88c3 61bd
00000260: 14d9 20bd 9cd7 58bd 177b 183c 0544 cabc
00000270: c52f 96bd 0217 403c 6889 aabb adbb 83bd
00000280: 4f27 18bd 23ce 37bd cf3d 6fbd dd4b 70bd
00000290: eb0c fabc 34bd bd3c 2f1b 4d3d d6d6 15bc
000002a0: e525 523d 2b92 3c3d 5f6a 903c 8610 b8bd
000002b0: 14f6 bfbc eb16 b0bc 2cac 85bd 5e80 dabc
000002c0: 410d 023d 3bbe 3b3d 0fe0 d0bb e833 67bd
000002d0: d355 fdbc 66c7 133d d1f9 063c 742a 67bc
000002e0: f1a8 dd3c bba6 c23c 2100 b93a 3686 84bc
000002f0: 597a 9bbc 9baa ba3c a3b2 4a3d bbbb eb3c
00000300: 70a6 bcbc 9119 fb3d 81ae 1abc 8e32 143d
00000310: e70e 3d3c 0c4d f43c f470 9b3b faa4 0b3d
00000320: d3ce 49bd 5eb3 95bd 24c4 643e 9efa b7bc
00000330: eb05 a9ba c748 363c 9107 32bd 990d 83bd
00000340: efd5 8dbd 9d9b 7dbd a3d0 aebd ac48 9abd
00000350: 06d4 b2bd bafc a53c 76fa febc 3759 123c
00000360: 9b29 ec3c 1e86 a63c d053 273d d9e7 653d
00000370: fbf6 443d eb31 e3ba 1a49 a83d 0fc6 263c
00000380: ddf9 243d ba7e 7b3d 1dd6 213d bcb7 713d
00000390: ffc3 2d3d 2fba fa3c 2df1 3b3d 2605 ac3c
000003a0: 5d58 9d3d def4 593d c1e9 0b3d 3a11 a93d
000003b0: 3c1b a4bb ff61 803d d048 86bb 303e 023b
000003c0: e555 8f3d 0aa5 b33c 4a34 2f3d f53f 423d
000003d0: c4d9 2a3c c495 aabd 9653 743c ad2e 283b
000003e0: 18df a4bb b77e 8bbd edb8 503c 86fc 27bd
000003f0: 2117 e43d fe58 ff3d 5edd 663c ea72 bb3d
0.033201616 0.08315317 0.012758135 -0.032840308 0.07495078 0.018570587 0.01823985 0.06105135
0.010715352 -0.040299878 0.029236073 -0.016344313 -0.034289684 -0.009549229 0.0015475912 0.01731736
0.080678836 -0.014871143 -0.040414814 -0.021891836 0.00855023 -0.06985435 0.0007325966 -0.032645848
0.023779674 -0.017765822 0.0034915046 0.0397329 0.04600477 -0.030872663 0.053671293 -0.017144326
-0.014453757 0.07582286 -0.021697236 -0.020240283 0.023491489 0.044460546 0.051998705 -0.032515496
0.0023712635 0.031724893 -0.03470719 -0.06766567 -0.030531509 -0.0016550481 0.01059322 0.0051817
-0.011958973 0.01868237 -0.036364082 -0.02425121 0.007399851 -0.03519246 0.018728303 0.04403199
-0.0032890183 0.008074259 0.050562177 -0.0053193932 0.008075004 -0.0040872023 -0.00984948 -0.056095395
-0.052126214 -0.03240815 -0.12455844 -0.020112962 -0.0026689535 0.050246105 0.03971795 -0.010802756
-0.0039694826 -0.028880429 -0.007787801 0.008207969 0.01950046 -0.0069974912 -0.010542617 -0.037427
0.00946976 0.06769492 -0.0069303964 0.02374765 0.013940294 0.05348551 0.09972254 0.10370444
0.07111551 0.15101072 -0.050748114 -0.115544796 0.018285934 -0.0073407334 0.17970137 0.043409307
0.024402674 0.0046824375 0.1366289 0.03993298 -0.062969506 0.036018837 -0.026197642 0.12699255
-0.058807448 -0.022703487 0.05035983 0.14336509 0.04829385 0.0865951 0.10799897 0.079646625
0.098354556 0.09258187 0.036129504 0.030951329 0.05832993 -0.017079368 0.019826435 0.10737568
0.017913291 0.06714119 0.09292479 0.066453986 0.035150293 0.093202375 0.04308302 -0.018797228
0.021640232 -0.0149175925 0.0032206476 0.04019849 0.044984568 0.03858696 0.024320256 -0.14822076
-0.08776071 -0.100881204 -0.17306036 -0.14218822 -0.06830149 -0.15762085 -0.1259925 -0.09788804
-0.1654375 -0.021895006 -0.045599695 -0.23056433 -0.117266506 -0.03999023 -0.11024283 -0.055118114
-0.03926952 -0.052939996 0.009306691 -0.024690637 -0.0733333 0.0117242355 -0.0052043684 -0.06432281
-0.037146863 -0.04487432 -0.058408555 -0.0586661 -0.030523738 0.023161508 0.050074752 -0.009145459
0.05130567 0.046037834 0.017628847 -0.089875266 -0.023432769 -0.021495303 -0.0652698 -0.026672538
0.03175092 0.045835715 -0.006374366 -0.056445986 -0.030924713 0.036078833 0.008238272 -0.014109243
0.027058097 0.023761144 0.0014114418 -0.016177278 -0.018979238 0.02278643 0.049486768 0.02877604
-0.023028582 0.12260736 -0.009441019 0.036181025 0.0115391975 0.029821895 0.0047436897 0.03409288
-0.04926951 -0.07309602 0.22340447 -0.02245837 -0.001289544 0.01112575 -0.043464247 -0.06399078
-0.0692557 -0.061915983 -0.08535888 -0.07533392 -0.087318465 0.020262111 -0.031125288 0.008932403
0.028828433 0.020327624 0.040851414 0.05612931 0.0480871 -0.0017333602 0.08217068 0.010179057
0.04027735 0.061400153 0.039510835 0.059013113 0.042423245 0.030606357 0.0458843 0.020998549
0.076828696 0.05321204 0.034158472 0.08255239 -0.0050081294 0.06268691 -0.0040980354 0.0019873492
0.06998805 0.021929283 0.042774476 0.047424275 0.010427896 -0.08329347 0.014912507 0.0025662587
-0.0050314777 -0.06811278 0.012739402 -0.04101231 0.11137224 0.12468146 0.014090864 0.091527775

dc6.0.bias f4 [16]
00000000: fd21 703d d4aa 8d3d 9d52 d4bc e990 893d
00000010: 8ed3 933c 8703 ae3c 3477 aabc c6a7 0d3a
00000020: 31b8 e33a d7ba 3a3d 97ff 93ba a3ff 033d
00000030: 724d b53c f4be e73d 45c5 ad3d 45a7 6f3d
0.058626164 0.069173485 -0.0259183 0.067170925 0.018045213 0.021241916 -0.020808794 0.00054037233
0.0017373619 0.04558834 -0.0011291382 0.032226216 0.022131655 0.11315718 0.08484892 0.05850913
